…
I0304 15:17:30.344358 14834 solver.cpp:84] Creating training net from train_net file: /home/fu/workspace/deeplearning/caffe-ssd/models/VGGNet/VOC0712/Deconv_48x48/train.prototxt
I0304 15:17:30.345036 14834 net.cpp:58] Initializing net from parameters: 
name: "DECONV_48x48_train"
state {
  phase: TRAIN
  level: 0
  stage: ""
}
layer {
  name: "data"
  type: "CvpppSegData"
  top: "data"
  top: "label"
  include {
    phase: TRAIN
  }
  data_param {
    source: "/home/fu/workspace/deeplearning/caffe-ssd/models/VGGNet/VOC0712/SSD_300x300_googlenet_CVPPP/Leaf_counts_training.csv"
    batch_size: 16
  }
}
layer {
  name: "conv1_1"
  type: "Convolution"
  bottom: "data"
  top: "conv1_1"
  param {
    lr_mult: 1
    decay_mult: 1
  }
  param {
    lr_mult: 2
    decay_mult: 0
  }
  convolution_param {
    num_output: 16
    pad: 1
    kernel_size: 3
    stride: 1
    weight_filler {
      type: "xavier"
    }
    bias_filler {
      type: "constant"
    }
  }
}
layer {
  name: "conv1_1_relu"
  type: "ReLU"
  bottom: "conv1_1"
  top: "conv1_1"
}
layer {
  name: "conv1_2"
  type: "Convolution"
  bottom: "conv1_1"
  top: "conv1_2"
  param {
    lr_mult: 1
    decay_mult: 1
  }
  param {
    lr_mult: 2
    decay_mult: 0
  }
  convolution_param {
    num_output: 32
    pad: 1
    kernel_size: 3
    stride: 1
    weight_filler {
      type: "xavier"
    }
    bias_filler {
      type: "constant"
    }
  }
}
layer {
  name: "conv1_2_relu"
  type: "ReLU"
  bottom: "conv1_2"
  top: "conv1_2"
}
layer {
  name: "pool1"
  type: "Pooling"
  bottom: "conv1_2"
  top: "pool1"
  pooling_param {
    pool: MAX
    kernel_size: 2
    stride: 2
  }
}
layer {
  name: "conv2_1"
  type: "Convolution"
  bottom: "pool1"
  top: "conv2_1"
  param {
    lr_mult: 1
    decay_mult: 1
  }
  param {
    lr_mult: 2
    decay_mult: 0
  }
  convolution_param {
    num_output: 32
    pad: 1
    kernel_size: 3
    stride: 1
    weight_filler {
      type: "xavier"
    }
    bias_filler {
      type: "constant"
    }
  }
}
layer {
  name: "conv2_1_relu"
  type: "ReLU"
  bottom: "conv2_1"
  top: "conv2_1"
}
layer {
  name: "conv2_2"
  type: "Convolution"
  bottom: "conv2_1"
  top: "conv2_2"
  param {
    lr_mult: 1
    decay_mult: 1
  }
  param {
    lr_mult: 2
    decay_mult: 0
  }
  convolution_param {
    num_output: 64
    pad: 1
    kernel_size: 3
    stride: 1
    weight_filler {
      type: "xavier"
    }
    bias_filler {
      type: "constant"
    }
  }
}
layer {
  name: "conv2_2_relu"
  type: "ReLU"
  bottom: "conv2_2"
  top: "conv2_2"
}
layer {
  name: "pool2"
  type: "Pooling"
  bottom: "conv2_2"
  top: "pool2"
  pooling_param {
    pool: MAX
    kernel_size: 2
    stride: 2
  }
}
layer {
  name: "conv3_1"
  type: "Convolution"
  bottom: "pool2"
  top: "conv3_1"
  param {
    lr_mult: 1
    decay_mult: 1
  }
  param {
    lr_mult: 2
    decay_mult: 0
  }
  convolution_param {
    num_output: 64
    pad: 1
    kernel_size: 3
    stride: 1
    weight_filler {
      type: "xavier"
    }
    bias_filler {
      type: "constant"
    }
  }
}
layer {
  name: "conv3_1_relu"
  type: "ReLU"
  bottom: "conv3_1"
  top: "conv3_1"
}
layer {
  name: "conv3_2"
  type: "Convolution"
  bottom: "conv3_1"
  top: "conv3_2"
  param {
    lr_mult: 1
    decay_mult: 1
  }
  param {
    lr_mult: 2
    decay_mult: 0
  }
  convolution_param {
    num_output: 96
    pad: 1
    kernel_size: 3
    stride: 1
    weight_filler {
      type: "xavier"
    }
    bias_filler {
      type: "constant"
    }
  }
}
layer {
  name: "conv3_2_relu"
  type: "ReLU"
  bottom: "conv3_2"
  top: "conv3_2"
}
layer {
  name: "pool3"
  type: "Pooling"
  bottom: "conv3_2"
  top: "pool3"
  pooling_param {
    pool: MAX
    kernel_size: 2
    stride: 2
  }
}
layer {
  name: "convfc_1"
  type: "Convolution"
  bottom: "pool3"
  top: "convfc_1"
  param {
    lr_mult: 1
    decay_mult: 1
  }
  param {
    lr_mult: 2
    decay_mult: 0
  }
  convolution_param {
    num_output: 96
    pad: 1
    kernel_size: 3
    stride: 1
    weight_filler {
      type: "xavier"
    }
    bias_filler {
      type: "constant"
    }
  }
}
layer {
  name: "convfc_1_relu"
  type: "ReLU"
  bottom: "convfc_1"
  top: "convfc_1"
}
layer {
  name: "convfc_2"
  type: "Convolution"
  bottom: "convfc_1"
  top: "convfc_2"
  param {
    lr_mult: 1
    decay_mult: 1
  }
  param {
    lr_mult: 2
    decay_mult: 0
  }
  convolution_param {
    num_output: 128
    pad: 1
    kernel_size: 3
    stride: 1
    weight_filler {
      type: "xavier"
    }
    bias_filler {
      type: "constant"
    }
  }
}
layer {
  name: "convfc_2_relu"
  type: "ReLU"
  bottom: "convfc_2"
  top: "convfc_2"
}
layer {
  name: "poolfc"
  type: "Pooling"
  bottom: "convfc_2"
  top: "poolfc"
  pooling_param {
    pool: MAX
    kernel_size: 2
    stride: 2
  }
}
layer {
  name: "deconvfc_1"
  type: "Deconvolution"
  bottom: "poolfc"
  top: "deconvfc_1"
  param {
    lr_mult: 1
    decay_mult: 1
  }
  param {
    lr_mult: 2
    decay_mult: 0
  }
  convolution_param {
    num_output: 96
    pad: 0
    kernel_size: 2
    stride: 2
    weight_filler {
      type: "xavier"
    }
    bias_filler {
      type: "constant"
    }
  }
}
layer {
  name: "deconvfc_1_relu"
  type: "ReLU"
  bottom: "deconvfc_1"
  top: "deconvfc_1"
}
layer {
  name: "deconvfc_1_concat"
  type: "Concat"
  bottom: "deconvfc_1"
  bottom: "convfc_2"
  top: "deconvfc_1_concat"
}
layer {
  name: "deconvfc_2"
  type: "Deconvolution"
  bottom: "deconvfc_1_concat"
  top: "deconvfc_2"
  param {
    lr_mult: 1
    decay_mult: 1
  }
  param {
    lr_mult: 2
    decay_mult: 0
  }
  convolution_param {
    num_output: 96
    pad: 1
    kernel_size: 3
    stride: 1
    weight_filler {
      type: "xavier"
    }
    bias_filler {
      type: "constant"
    }
  }
}
layer {
  name: "deconvfc_2_relu"
  type: "ReLU"
  bottom: "deconvfc_2"
  top: "deconvfc_2"
}
layer {
  name: "deconvfc_2_concat"
  type: "Concat"
  bottom: "deconvfc_2"
  bottom: "convfc_1"
  top: "deconvfc_2_concat"
}
layer {
  name: "deconv4_1"
  type: "Deconvolution"
  bottom: "deconvfc_2_concat"
  top: "deconv4_1"
  param {
    lr_mult: 1
    decay_mult: 1
  }
  param {
    lr_mult: 2
    decay_mult: 0
  }
  convolution_param {
    num_output: 64
    pad: 0
    kernel_size: 2
    stride: 2
    weight_filler {
      type: "xavier"
    }
    bias_filler {
      type: "constant"
    }
  }
}
layer {
  name: "deconv4_1_relu"
  type: "ReLU"
  bottom: "deconv4_1"
  top: "deconv4_1"
}
layer {
  name: "deconv4_1_concat"
  type: "Concat"
  bottom: "deconv4_1"
  bottom: "conv3_2"
  top: "deconv4_1_concat"
}
layer {
  name: "deconv4_2"
  type: "Deconvolution"
  bottom: "deconv4_1_concat"
  top: "deconv4_2"
  param {
    lr_mult: 1
    decay_mult: 1
  }
  param {
    lr_mult: 2
    decay_mult: 0
  }
  convolution_param {
    num_output: 64
    pad: 1
    kernel_size: 3
    stride: 1
    weight_filler {
      type: "xavier"
    }
    bias_filler {
      type: "constant"
    }
  }
}
layer {
  name: "deconv4_2_relu"
  type: "ReLU"
  bottom: "deconv4_2"
  top: "deconv4_2"
}
layer {
  name: "deconv4_2_concat"
  type: "Concat"
  bottom: "deconv4_2"
  bottom: "conv3_1"
  top: "deconv4_2_concat"
}
layer {
  name: "deconv5_1"
  type: "Deconvolution"
  bottom: "deconv4_2_concat"
  top: "deconv5_1"
  param {
    lr_mult: 1
    decay_mult: 1
  }
  param {
    lr_mult: 2
    decay_mult: 0
  }
  convolution_param {
    num_output: 32
    pad: 0
    kernel_size: 2
    stride: 2
    weight_filler {
      type: "xavier"
    }
    bias_filler {
      type: "constant"
    }
  }
}
layer {
  name: "deconv5_1_relu"
  type: "ReLU"
  bottom: "deconv5_1"
  top: "deconv5_1"
}
layer {
  name: "deconv5_1_concat"
  type: "Concat"
  bottom: "deconv5_1"
  bottom: "conv2_2"
  top: "deconv5_1_concat"
}
layer {
  name: "deconv5_2"
  type: "Deconvolution"
  bottom: "deconv5_1_concat"
  top: "deconv5_2"
  param {
    lr_mult: 1
    decay_mult: 1
  }
  param {
    lr_mult: 2
    decay_mult: 0
  }
  convolution_param {
    num_output: 32
    pad: 1
    kernel_size: 3
    stride: 1
    weight_filler {
      type: "xavier"
    }
    bias_filler {
      type: "constant"
    }
  }
}
layer {
  name: "deconv5_2_relu"
  type: "ReLU"
  bottom: "deconv5_2"
  top: "deconv5_2"
}
layer {
  name: "deconv5_2_concat"
  type: "Concat"
  bottom: "deconv5_2"
  bottom: "conv2_1"
  top: "deconv5_2_concat"
}
layer {
  name: "deconv6_1"
  type: "Deconvolution"
  bottom: "deconv5_2_concat"
  top: "deconv6_1"
  param {
    lr_mult: 1
    decay_mult: 1
  }
  param {
    lr_mult: 2
    decay_mult: 0
  }
  convolution_param {
    num_output: 16
    pad: 0
    kernel_size: 2
    stride: 2
    weight_filler {
      type: "xavier"
    }
    bias_filler {
      type: "constant"
    }
  }
}
layer {
  name: "deconv6_1_relu"
  type: "ReLU"
  bottom: "deconv6_1"
  top: "deconv6_1"
}
layer {
  name: "deconv6_1_concat"
  type: "Concat"
  bottom: "deconv6_1"
  bottom: "conv1_2"
  top: "deconv6_1_concat"
}
layer {
  name: "deconv6_2"
  type: "Deconvolution"
  bottom: "deconv6_1_concat"
  top: "deconv6_2"
  param {
    lr_mult: 1
    decay_mult: 1
  }
  param {
    lr_mult: 2
    decay_mult: 0
  }
  convolution_param {
    num_output: 16
    pad: 1
    kernel_size: 3
    stride: 1
    weight_filler {
      type: "xavier"
    }
    bias_filler {
      type: "constant"
    }
  }
}
layer {
  name: "deconv6_2_relu"
  type: "ReLU"
  bottom: "deconv6_2"
  top: "deconv6_2"
}
layer {
  name: "deconv6_2_concat"
  type: "Concat"
  bottom: "deconv6_2"
  bottom: "conv1_1"
  top: "deconv6_2_concat"
}
layer {
  name: "deconv6_3"
  type: "Deconvolution"
  bottom: "deconv6_2_concat"
  top: "deconv6_3"
  param {
    lr_mult: 1
    decay_mult: 1
  }
  param {
    lr_mult: 2
    decay_mult: 0
  }
  convolution_param {
    num_output: 1
    pad: 1
    kernel_size: 3
    stride: 1
    weight_filler {
      type: "xavier"
    }
    bias_filler {
      type: "constant"
    }
  }
}
layer {
  name: "loss"
  type: "EuclideanLoss"
  bottom: "deconv6_3"
  bottom: "label"
}
I0304 15:17:30.345190 14834 layer_factory.hpp:77] Creating layer data
I0304 15:17:30.363323 14834 cvpppseg_data_layer.cpp:67] Database Nums: 250
I0304 15:17:30.363335 14834 net.cpp:100] Creating Layer data
I0304 15:17:30.363340 14834 net.cpp:408] data -> data
I0304 15:17:30.363353 14834 net.cpp:408] data -> label
I0304 15:17:30.374061 14834 cvpppseg_data_layer.cpp:88] output data size: 16,4,48,48
I0304 15:17:30.375829 14834 net.cpp:150] Setting up data
I0304 15:17:30.375843 14834 net.cpp:157] Top shape: 16 4 48 48 (147456)
I0304 15:17:30.375846 14834 net.cpp:157] Top shape: 16 1 48 48 (36864)
I0304 15:17:30.375849 14834 net.cpp:165] Memory required for data: 737280
I0304 15:17:30.375854 14834 layer_factory.hpp:77] Creating layer conv1_1
I0304 15:17:30.375867 14834 net.cpp:100] Creating Layer conv1_1
I0304 15:17:30.375870 14834 net.cpp:434] conv1_1 <- data
I0304 15:17:30.375877 14834 net.cpp:408] conv1_1 -> conv1_1
I0304 15:17:30.501449 14834 net.cpp:150] Setting up conv1_1
I0304 15:17:30.501468 14834 net.cpp:157] Top shape: 16 16 48 48 (589824)
I0304 15:17:30.501471 14834 net.cpp:165] Memory required for data: 3096576
I0304 15:17:30.501480 14834 layer_factory.hpp:77] Creating layer conv1_1_relu
I0304 15:17:30.501489 14834 net.cpp:100] Creating Layer conv1_1_relu
I0304 15:17:30.501492 14834 net.cpp:434] conv1_1_relu <- conv1_1
I0304 15:17:30.501495 14834 net.cpp:395] conv1_1_relu -> conv1_1 (in-place)
I0304 15:17:30.501597 14834 net.cpp:150] Setting up conv1_1_relu
I0304 15:17:30.501603 14834 net.cpp:157] Top shape: 16 16 48 48 (589824)
I0304 15:17:30.501616 14834 net.cpp:165] Memory required for data: 5455872
I0304 15:17:30.501618 14834 layer_factory.hpp:77] Creating layer conv1_1_conv1_1_relu_0_split
I0304 15:17:30.501621 14834 net.cpp:100] Creating Layer conv1_1_conv1_1_relu_0_split
I0304 15:17:30.501623 14834 net.cpp:434] conv1_1_conv1_1_relu_0_split <- conv1_1
I0304 15:17:30.501626 14834 net.cpp:408] conv1_1_conv1_1_relu_0_split -> conv1_1_conv1_1_relu_0_split_0
I0304 15:17:30.501631 14834 net.cpp:408] conv1_1_conv1_1_relu_0_split -> conv1_1_conv1_1_relu_0_split_1
I0304 15:17:30.501653 14834 net.cpp:150] Setting up conv1_1_conv1_1_relu_0_split
I0304 15:17:30.501658 14834 net.cpp:157] Top shape: 16 16 48 48 (589824)
I0304 15:17:30.501660 14834 net.cpp:157] Top shape: 16 16 48 48 (589824)
I0304 15:17:30.501662 14834 net.cpp:165] Memory required for data: 10174464
I0304 15:17:30.501664 14834 layer_factory.hpp:77] Creating layer conv1_2
I0304 15:17:30.501672 14834 net.cpp:100] Creating Layer conv1_2
I0304 15:17:30.501673 14834 net.cpp:434] conv1_2 <- conv1_1_conv1_1_relu_0_split_0
I0304 15:17:30.501677 14834 net.cpp:408] conv1_2 -> conv1_2
I0304 15:17:30.502697 14834 net.cpp:150] Setting up conv1_2
I0304 15:17:30.502706 14834 net.cpp:157] Top shape: 16 32 48 48 (1179648)
I0304 15:17:30.502707 14834 net.cpp:165] Memory required for data: 14893056
I0304 15:17:30.502712 14834 layer_factory.hpp:77] Creating layer conv1_2_relu
I0304 15:17:30.502717 14834 net.cpp:100] Creating Layer conv1_2_relu
I0304 15:17:30.502718 14834 net.cpp:434] conv1_2_relu <- conv1_2
I0304 15:17:30.502722 14834 net.cpp:395] conv1_2_relu -> conv1_2 (in-place)
I0304 15:17:30.502813 14834 net.cpp:150] Setting up conv1_2_relu
I0304 15:17:30.502820 14834 net.cpp:157] Top shape: 16 32 48 48 (1179648)
I0304 15:17:30.502821 14834 net.cpp:165] Memory required for data: 19611648
I0304 15:17:30.502823 14834 layer_factory.hpp:77] Creating layer conv1_2_conv1_2_relu_0_split
I0304 15:17:30.502826 14834 net.cpp:100] Creating Layer conv1_2_conv1_2_relu_0_split
I0304 15:17:30.502828 14834 net.cpp:434] conv1_2_conv1_2_relu_0_split <- conv1_2
I0304 15:17:30.502830 14834 net.cpp:408] conv1_2_conv1_2_relu_0_split -> conv1_2_conv1_2_relu_0_split_0
I0304 15:17:30.502835 14834 net.cpp:408] conv1_2_conv1_2_relu_0_split -> conv1_2_conv1_2_relu_0_split_1
I0304 15:17:30.502854 14834 net.cpp:150] Setting up conv1_2_conv1_2_relu_0_split
I0304 15:17:30.502859 14834 net.cpp:157] Top shape: 16 32 48 48 (1179648)
I0304 15:17:30.502861 14834 net.cpp:157] Top shape: 16 32 48 48 (1179648)
I0304 15:17:30.502863 14834 net.cpp:165] Memory required for data: 29048832
I0304 15:17:30.502864 14834 layer_factory.hpp:77] Creating layer pool1
I0304 15:17:30.502868 14834 net.cpp:100] Creating Layer pool1
I0304 15:17:30.502871 14834 net.cpp:434] pool1 <- conv1_2_conv1_2_relu_0_split_0
I0304 15:17:30.502873 14834 net.cpp:408] pool1 -> pool1
I0304 15:17:30.502897 14834 net.cpp:150] Setting up pool1
I0304 15:17:30.502902 14834 net.cpp:157] Top shape: 16 32 24 24 (294912)
I0304 15:17:30.502903 14834 net.cpp:165] Memory required for data: 30228480
I0304 15:17:30.502905 14834 layer_factory.hpp:77] Creating layer conv2_1
I0304 15:17:30.502910 14834 net.cpp:100] Creating Layer conv2_1
I0304 15:17:30.502912 14834 net.cpp:434] conv2_1 <- pool1
I0304 15:17:30.502915 14834 net.cpp:408] conv2_1 -> conv2_1
I0304 15:17:30.503502 14834 net.cpp:150] Setting up conv2_1
I0304 15:17:30.503510 14834 net.cpp:157] Top shape: 16 32 24 24 (294912)
I0304 15:17:30.503512 14834 net.cpp:165] Memory required for data: 31408128
I0304 15:17:30.503517 14834 layer_factory.hpp:77] Creating layer conv2_1_relu
I0304 15:17:30.503523 14834 net.cpp:100] Creating Layer conv2_1_relu
I0304 15:17:30.503525 14834 net.cpp:434] conv2_1_relu <- conv2_1
I0304 15:17:30.503528 14834 net.cpp:395] conv2_1_relu -> conv2_1 (in-place)
I0304 15:17:30.503772 14834 net.cpp:150] Setting up conv2_1_relu
I0304 15:17:30.503780 14834 net.cpp:157] Top shape: 16 32 24 24 (294912)
I0304 15:17:30.503782 14834 net.cpp:165] Memory required for data: 32587776
I0304 15:17:30.503783 14834 layer_factory.hpp:77] Creating layer conv2_1_conv2_1_relu_0_split
I0304 15:17:30.503794 14834 net.cpp:100] Creating Layer conv2_1_conv2_1_relu_0_split
I0304 15:17:30.503796 14834 net.cpp:434] conv2_1_conv2_1_relu_0_split <- conv2_1
I0304 15:17:30.503799 14834 net.cpp:408] conv2_1_conv2_1_relu_0_split -> conv2_1_conv2_1_relu_0_split_0
I0304 15:17:30.503803 14834 net.cpp:408] conv2_1_conv2_1_relu_0_split -> conv2_1_conv2_1_relu_0_split_1
I0304 15:17:30.503826 14834 net.cpp:150] Setting up conv2_1_conv2_1_relu_0_split
I0304 15:17:30.503830 14834 net.cpp:157] Top shape: 16 32 24 24 (294912)
I0304 15:17:30.503834 14834 net.cpp:157] Top shape: 16 32 24 24 (294912)
I0304 15:17:30.503834 14834 net.cpp:165] Memory required for data: 34947072
I0304 15:17:30.503836 14834 layer_factory.hpp:77] Creating layer conv2_2
I0304 15:17:30.503841 14834 net.cpp:100] Creating Layer conv2_2
I0304 15:17:30.503844 14834 net.cpp:434] conv2_2 <- conv2_1_conv2_1_relu_0_split_0
I0304 15:17:30.503847 14834 net.cpp:408] conv2_2 -> conv2_2
I0304 15:17:30.504629 14834 net.cpp:150] Setting up conv2_2
I0304 15:17:30.504637 14834 net.cpp:157] Top shape: 16 64 24 24 (589824)
I0304 15:17:30.504639 14834 net.cpp:165] Memory required for data: 37306368
I0304 15:17:30.504643 14834 layer_factory.hpp:77] Creating layer conv2_2_relu
I0304 15:17:30.504648 14834 net.cpp:100] Creating Layer conv2_2_relu
I0304 15:17:30.504652 14834 net.cpp:434] conv2_2_relu <- conv2_2
I0304 15:17:30.504653 14834 net.cpp:395] conv2_2_relu -> conv2_2 (in-place)
I0304 15:17:30.504757 14834 net.cpp:150] Setting up conv2_2_relu
I0304 15:17:30.504762 14834 net.cpp:157] Top shape: 16 64 24 24 (589824)
I0304 15:17:30.504765 14834 net.cpp:165] Memory required for data: 39665664
I0304 15:17:30.504765 14834 layer_factory.hpp:77] Creating layer conv2_2_conv2_2_relu_0_split
I0304 15:17:30.504770 14834 net.cpp:100] Creating Layer conv2_2_conv2_2_relu_0_split
I0304 15:17:30.504771 14834 net.cpp:434] conv2_2_conv2_2_relu_0_split <- conv2_2
I0304 15:17:30.504773 14834 net.cpp:408] conv2_2_conv2_2_relu_0_split -> conv2_2_conv2_2_relu_0_split_0
I0304 15:17:30.504777 14834 net.cpp:408] conv2_2_conv2_2_relu_0_split -> conv2_2_conv2_2_relu_0_split_1
I0304 15:17:30.504801 14834 net.cpp:150] Setting up conv2_2_conv2_2_relu_0_split
I0304 15:17:30.504804 14834 net.cpp:157] Top shape: 16 64 24 24 (589824)
I0304 15:17:30.504806 14834 net.cpp:157] Top shape: 16 64 24 24 (589824)
I0304 15:17:30.504808 14834 net.cpp:165] Memory required for data: 44384256
I0304 15:17:30.504809 14834 layer_factory.hpp:77] Creating layer pool2
I0304 15:17:30.504813 14834 net.cpp:100] Creating Layer pool2
I0304 15:17:30.504814 14834 net.cpp:434] pool2 <- conv2_2_conv2_2_relu_0_split_0
I0304 15:17:30.504817 14834 net.cpp:408] pool2 -> pool2
I0304 15:17:30.504837 14834 net.cpp:150] Setting up pool2
I0304 15:17:30.504840 14834 net.cpp:157] Top shape: 16 64 12 12 (147456)
I0304 15:17:30.504842 14834 net.cpp:165] Memory required for data: 44974080
I0304 15:17:30.504844 14834 layer_factory.hpp:77] Creating layer conv3_1
I0304 15:17:30.504849 14834 net.cpp:100] Creating Layer conv3_1
I0304 15:17:30.504853 14834 net.cpp:434] conv3_1 <- pool2
I0304 15:17:30.504855 14834 net.cpp:408] conv3_1 -> conv3_1
I0304 15:17:30.505563 14834 net.cpp:150] Setting up conv3_1
I0304 15:17:30.505570 14834 net.cpp:157] Top shape: 16 64 12 12 (147456)
I0304 15:17:30.505573 14834 net.cpp:165] Memory required for data: 45563904
I0304 15:17:30.505578 14834 layer_factory.hpp:77] Creating layer conv3_1_relu
I0304 15:17:30.505584 14834 net.cpp:100] Creating Layer conv3_1_relu
I0304 15:17:30.505585 14834 net.cpp:434] conv3_1_relu <- conv3_1
I0304 15:17:30.505589 14834 net.cpp:395] conv3_1_relu -> conv3_1 (in-place)
I0304 15:17:30.505689 14834 net.cpp:150] Setting up conv3_1_relu
I0304 15:17:30.505694 14834 net.cpp:157] Top shape: 16 64 12 12 (147456)
I0304 15:17:30.505697 14834 net.cpp:165] Memory required for data: 46153728
I0304 15:17:30.505698 14834 layer_factory.hpp:77] Creating layer conv3_1_conv3_1_relu_0_split
I0304 15:17:30.505700 14834 net.cpp:100] Creating Layer conv3_1_conv3_1_relu_0_split
I0304 15:17:30.505708 14834 net.cpp:434] conv3_1_conv3_1_relu_0_split <- conv3_1
I0304 15:17:30.505712 14834 net.cpp:408] conv3_1_conv3_1_relu_0_split -> conv3_1_conv3_1_relu_0_split_0
I0304 15:17:30.505715 14834 net.cpp:408] conv3_1_conv3_1_relu_0_split -> conv3_1_conv3_1_relu_0_split_1
I0304 15:17:30.505738 14834 net.cpp:150] Setting up conv3_1_conv3_1_relu_0_split
I0304 15:17:30.505743 14834 net.cpp:157] Top shape: 16 64 12 12 (147456)
I0304 15:17:30.505744 14834 net.cpp:157] Top shape: 16 64 12 12 (147456)
I0304 15:17:30.505746 14834 net.cpp:165] Memory required for data: 47333376
I0304 15:17:30.505748 14834 layer_factory.hpp:77] Creating layer conv3_2
I0304 15:17:30.505754 14834 net.cpp:100] Creating Layer conv3_2
I0304 15:17:30.505756 14834 net.cpp:434] conv3_2 <- conv3_1_conv3_1_relu_0_split_0
I0304 15:17:30.505760 14834 net.cpp:408] conv3_2 -> conv3_2
I0304 15:17:30.506680 14834 net.cpp:150] Setting up conv3_2
I0304 15:17:30.506688 14834 net.cpp:157] Top shape: 16 96 12 12 (221184)
I0304 15:17:30.506690 14834 net.cpp:165] Memory required for data: 48218112
I0304 15:17:30.506695 14834 layer_factory.hpp:77] Creating layer conv3_2_relu
I0304 15:17:30.506698 14834 net.cpp:100] Creating Layer conv3_2_relu
I0304 15:17:30.506700 14834 net.cpp:434] conv3_2_relu <- conv3_2
I0304 15:17:30.506703 14834 net.cpp:395] conv3_2_relu -> conv3_2 (in-place)
I0304 15:17:30.506808 14834 net.cpp:150] Setting up conv3_2_relu
I0304 15:17:30.506814 14834 net.cpp:157] Top shape: 16 96 12 12 (221184)
I0304 15:17:30.506815 14834 net.cpp:165] Memory required for data: 49102848
I0304 15:17:30.506816 14834 layer_factory.hpp:77] Creating layer conv3_2_conv3_2_relu_0_split
I0304 15:17:30.506819 14834 net.cpp:100] Creating Layer conv3_2_conv3_2_relu_0_split
I0304 15:17:30.506821 14834 net.cpp:434] conv3_2_conv3_2_relu_0_split <- conv3_2
I0304 15:17:30.506824 14834 net.cpp:408] conv3_2_conv3_2_relu_0_split -> conv3_2_conv3_2_relu_0_split_0
I0304 15:17:30.506829 14834 net.cpp:408] conv3_2_conv3_2_relu_0_split -> conv3_2_conv3_2_relu_0_split_1
I0304 15:17:30.506852 14834 net.cpp:150] Setting up conv3_2_conv3_2_relu_0_split
I0304 15:17:30.506855 14834 net.cpp:157] Top shape: 16 96 12 12 (221184)
I0304 15:17:30.506858 14834 net.cpp:157] Top shape: 16 96 12 12 (221184)
I0304 15:17:30.506860 14834 net.cpp:165] Memory required for data: 50872320
I0304 15:17:30.506861 14834 layer_factory.hpp:77] Creating layer pool3
I0304 15:17:30.506865 14834 net.cpp:100] Creating Layer pool3
I0304 15:17:30.506866 14834 net.cpp:434] pool3 <- conv3_2_conv3_2_relu_0_split_0
I0304 15:17:30.506870 14834 net.cpp:408] pool3 -> pool3
I0304 15:17:30.506891 14834 net.cpp:150] Setting up pool3
I0304 15:17:30.506893 14834 net.cpp:157] Top shape: 16 96 6 6 (55296)
I0304 15:17:30.506896 14834 net.cpp:165] Memory required for data: 51093504
I0304 15:17:30.506897 14834 layer_factory.hpp:77] Creating layer convfc_1
I0304 15:17:30.506902 14834 net.cpp:100] Creating Layer convfc_1
I0304 15:17:30.506906 14834 net.cpp:434] convfc_1 <- pool3
I0304 15:17:30.506909 14834 net.cpp:408] convfc_1 -> convfc_1
I0304 15:17:30.508322 14834 net.cpp:150] Setting up convfc_1
I0304 15:17:30.508330 14834 net.cpp:157] Top shape: 16 96 6 6 (55296)
I0304 15:17:30.508332 14834 net.cpp:165] Memory required for data: 51314688
I0304 15:17:30.508337 14834 layer_factory.hpp:77] Creating layer convfc_1_relu
I0304 15:17:30.508340 14834 net.cpp:100] Creating Layer convfc_1_relu
I0304 15:17:30.508342 14834 net.cpp:434] convfc_1_relu <- convfc_1
I0304 15:17:30.508347 14834 net.cpp:395] convfc_1_relu -> convfc_1 (in-place)
I0304 15:17:30.508450 14834 net.cpp:150] Setting up convfc_1_relu
I0304 15:17:30.508455 14834 net.cpp:157] Top shape: 16 96 6 6 (55296)
I0304 15:17:30.508456 14834 net.cpp:165] Memory required for data: 51535872
I0304 15:17:30.508458 14834 layer_factory.hpp:77] Creating layer convfc_1_convfc_1_relu_0_split
I0304 15:17:30.508461 14834 net.cpp:100] Creating Layer convfc_1_convfc_1_relu_0_split
I0304 15:17:30.508462 14834 net.cpp:434] convfc_1_convfc_1_relu_0_split <- convfc_1
I0304 15:17:30.508472 14834 net.cpp:408] convfc_1_convfc_1_relu_0_split -> convfc_1_convfc_1_relu_0_split_0
I0304 15:17:30.508476 14834 net.cpp:408] convfc_1_convfc_1_relu_0_split -> convfc_1_convfc_1_relu_0_split_1
I0304 15:17:30.508500 14834 net.cpp:150] Setting up convfc_1_convfc_1_relu_0_split
I0304 15:17:30.508504 14834 net.cpp:157] Top shape: 16 96 6 6 (55296)
I0304 15:17:30.508507 14834 net.cpp:157] Top shape: 16 96 6 6 (55296)
I0304 15:17:30.508508 14834 net.cpp:165] Memory required for data: 51978240
I0304 15:17:30.508510 14834 layer_factory.hpp:77] Creating layer convfc_2
I0304 15:17:30.508517 14834 net.cpp:100] Creating Layer convfc_2
I0304 15:17:30.508519 14834 net.cpp:434] convfc_2 <- convfc_1_convfc_1_relu_0_split_0
I0304 15:17:30.508522 14834 net.cpp:408] convfc_2 -> convfc_2
I0304 15:17:30.509583 14834 net.cpp:150] Setting up convfc_2
I0304 15:17:30.509591 14834 net.cpp:157] Top shape: 16 128 6 6 (73728)
I0304 15:17:30.509593 14834 net.cpp:165] Memory required for data: 52273152
I0304 15:17:30.509598 14834 layer_factory.hpp:77] Creating layer convfc_2_relu
I0304 15:17:30.509601 14834 net.cpp:100] Creating Layer convfc_2_relu
I0304 15:17:30.509603 14834 net.cpp:434] convfc_2_relu <- convfc_2
I0304 15:17:30.509608 14834 net.cpp:395] convfc_2_relu -> convfc_2 (in-place)
I0304 15:17:30.509712 14834 net.cpp:150] Setting up convfc_2_relu
I0304 15:17:30.509718 14834 net.cpp:157] Top shape: 16 128 6 6 (73728)
I0304 15:17:30.509721 14834 net.cpp:165] Memory required for data: 52568064
I0304 15:17:30.509722 14834 layer_factory.hpp:77] Creating layer convfc_2_convfc_2_relu_0_split
I0304 15:17:30.509726 14834 net.cpp:100] Creating Layer convfc_2_convfc_2_relu_0_split
I0304 15:17:30.509727 14834 net.cpp:434] convfc_2_convfc_2_relu_0_split <- convfc_2
I0304 15:17:30.509730 14834 net.cpp:408] convfc_2_convfc_2_relu_0_split -> convfc_2_convfc_2_relu_0_split_0
I0304 15:17:30.509733 14834 net.cpp:408] convfc_2_convfc_2_relu_0_split -> convfc_2_convfc_2_relu_0_split_1
I0304 15:17:30.509757 14834 net.cpp:150] Setting up convfc_2_convfc_2_relu_0_split
I0304 15:17:30.509762 14834 net.cpp:157] Top shape: 16 128 6 6 (73728)
I0304 15:17:30.509763 14834 net.cpp:157] Top shape: 16 128 6 6 (73728)
I0304 15:17:30.509764 14834 net.cpp:165] Memory required for data: 53157888
I0304 15:17:30.509766 14834 layer_factory.hpp:77] Creating layer poolfc
I0304 15:17:30.509770 14834 net.cpp:100] Creating Layer poolfc
I0304 15:17:30.509773 14834 net.cpp:434] poolfc <- convfc_2_convfc_2_relu_0_split_0
I0304 15:17:30.509776 14834 net.cpp:408] poolfc -> poolfc
I0304 15:17:30.509795 14834 net.cpp:150] Setting up poolfc
I0304 15:17:30.509799 14834 net.cpp:157] Top shape: 16 128 3 3 (18432)
I0304 15:17:30.509801 14834 net.cpp:165] Memory required for data: 53231616
I0304 15:17:30.509802 14834 layer_factory.hpp:77] Creating layer deconvfc_1
I0304 15:17:30.509807 14834 net.cpp:100] Creating Layer deconvfc_1
I0304 15:17:30.509810 14834 net.cpp:434] deconvfc_1 <- poolfc
I0304 15:17:30.509814 14834 net.cpp:408] deconvfc_1 -> deconvfc_1
I0304 15:17:30.510107 14834 net.cpp:150] Setting up deconvfc_1
I0304 15:17:30.510113 14834 net.cpp:157] Top shape: 16 96 6 6 (55296)
I0304 15:17:30.510113 14834 net.cpp:165] Memory required for data: 53452800
I0304 15:17:30.510119 14834 layer_factory.hpp:77] Creating layer deconvfc_1_relu
I0304 15:17:30.510123 14834 net.cpp:100] Creating Layer deconvfc_1_relu
I0304 15:17:30.510125 14834 net.cpp:434] deconvfc_1_relu <- deconvfc_1
I0304 15:17:30.510128 14834 net.cpp:395] deconvfc_1_relu -> deconvfc_1 (in-place)
I0304 15:17:30.510375 14834 net.cpp:150] Setting up deconvfc_1_relu
I0304 15:17:30.510382 14834 net.cpp:157] Top shape: 16 96 6 6 (55296)
I0304 15:17:30.510385 14834 net.cpp:165] Memory required for data: 53673984
I0304 15:17:30.510386 14834 layer_factory.hpp:77] Creating layer deconvfc_1_concat
I0304 15:17:30.510390 14834 net.cpp:100] Creating Layer deconvfc_1_concat
I0304 15:17:30.510392 14834 net.cpp:434] deconvfc_1_concat <- deconvfc_1
I0304 15:17:30.510396 14834 net.cpp:434] deconvfc_1_concat <- convfc_2_convfc_2_relu_0_split_1
I0304 15:17:30.510403 14834 net.cpp:408] deconvfc_1_concat -> deconvfc_1_concat
I0304 15:17:30.510423 14834 net.cpp:150] Setting up deconvfc_1_concat
I0304 15:17:30.510427 14834 net.cpp:157] Top shape: 16 224 6 6 (129024)
I0304 15:17:30.510429 14834 net.cpp:165] Memory required for data: 54190080
I0304 15:17:30.510432 14834 layer_factory.hpp:77] Creating layer deconvfc_2
I0304 15:17:30.510437 14834 net.cpp:100] Creating Layer deconvfc_2
I0304 15:17:30.510439 14834 net.cpp:434] deconvfc_2 <- deconvfc_1_concat
I0304 15:17:30.510443 14834 net.cpp:408] deconvfc_2 -> deconvfc_2
I0304 15:17:30.511153 14834 net.cpp:150] Setting up deconvfc_2
I0304 15:17:30.511158 14834 net.cpp:157] Top shape: 16 96 6 6 (55296)
I0304 15:17:30.511160 14834 net.cpp:165] Memory required for data: 54411264
I0304 15:17:30.511163 14834 layer_factory.hpp:77] Creating layer deconvfc_2_relu
I0304 15:17:30.511168 14834 net.cpp:100] Creating Layer deconvfc_2_relu
I0304 15:17:30.511169 14834 net.cpp:434] deconvfc_2_relu <- deconvfc_2
I0304 15:17:30.511171 14834 net.cpp:395] deconvfc_2_relu -> deconvfc_2 (in-place)
I0304 15:17:30.511273 14834 net.cpp:150] Setting up deconvfc_2_relu
I0304 15:17:30.511278 14834 net.cpp:157] Top shape: 16 96 6 6 (55296)
I0304 15:17:30.511281 14834 net.cpp:165] Memory required for data: 54632448
I0304 15:17:30.511282 14834 layer_factory.hpp:77] Creating layer deconvfc_2_concat
I0304 15:17:30.511286 14834 net.cpp:100] Creating Layer deconvfc_2_concat
I0304 15:17:30.511288 14834 net.cpp:434] deconvfc_2_concat <- deconvfc_2
I0304 15:17:30.511291 14834 net.cpp:434] deconvfc_2_concat <- convfc_1_convfc_1_relu_0_split_1
I0304 15:17:30.511293 14834 net.cpp:408] deconvfc_2_concat -> deconvfc_2_concat
I0304 15:17:30.511309 14834 net.cpp:150] Setting up deconvfc_2_concat
I0304 15:17:30.511313 14834 net.cpp:157] Top shape: 16 192 6 6 (110592)
I0304 15:17:30.511315 14834 net.cpp:165] Memory required for data: 55074816
I0304 15:17:30.511317 14834 layer_factory.hpp:77] Creating layer deconv4_1
I0304 15:17:30.511322 14834 net.cpp:100] Creating Layer deconv4_1
I0304 15:17:30.511324 14834 net.cpp:434] deconv4_1 <- deconvfc_2_concat
I0304 15:17:30.511327 14834 net.cpp:408] deconv4_1 -> deconv4_1
I0304 15:17:30.511616 14834 net.cpp:150] Setting up deconv4_1
I0304 15:17:30.511621 14834 net.cpp:157] Top shape: 16 64 12 12 (147456)
I0304 15:17:30.511623 14834 net.cpp:165] Memory required for data: 55664640
I0304 15:17:30.511626 14834 layer_factory.hpp:77] Creating layer deconv4_1_relu
I0304 15:17:30.511631 14834 net.cpp:100] Creating Layer deconv4_1_relu
I0304 15:17:30.511633 14834 net.cpp:434] deconv4_1_relu <- deconv4_1
I0304 15:17:30.511638 14834 net.cpp:395] deconv4_1_relu -> deconv4_1 (in-place)
I0304 15:17:30.511744 14834 net.cpp:150] Setting up deconv4_1_relu
I0304 15:17:30.511749 14834 net.cpp:157] Top shape: 16 64 12 12 (147456)
I0304 15:17:30.511750 14834 net.cpp:165] Memory required for data: 56254464
I0304 15:17:30.511752 14834 layer_factory.hpp:77] Creating layer deconv4_1_concat
I0304 15:17:30.511755 14834 net.cpp:100] Creating Layer deconv4_1_concat
I0304 15:17:30.511757 14834 net.cpp:434] deconv4_1_concat <- deconv4_1
I0304 15:17:30.511759 14834 net.cpp:434] deconv4_1_concat <- conv3_2_conv3_2_relu_0_split_1
I0304 15:17:30.511764 14834 net.cpp:408] deconv4_1_concat -> deconv4_1_concat
I0304 15:17:30.511777 14834 net.cpp:150] Setting up deconv4_1_concat
I0304 15:17:30.511781 14834 net.cpp:157] Top shape: 16 160 12 12 (368640)
I0304 15:17:30.511783 14834 net.cpp:165] Memory required for data: 57729024
I0304 15:17:30.511785 14834 layer_factory.hpp:77] Creating layer deconv4_2
I0304 15:17:30.511790 14834 net.cpp:100] Creating Layer deconv4_2
I0304 15:17:30.511792 14834 net.cpp:434] deconv4_2 <- deconv4_1_concat
I0304 15:17:30.511795 14834 net.cpp:408] deconv4_2 -> deconv4_2
I0304 15:17:30.512198 14834 net.cpp:150] Setting up deconv4_2
I0304 15:17:30.512203 14834 net.cpp:157] Top shape: 16 64 12 12 (147456)
I0304 15:17:30.512205 14834 net.cpp:165] Memory required for data: 58318848
I0304 15:17:30.512208 14834 layer_factory.hpp:77] Creating layer deconv4_2_relu
I0304 15:17:30.512217 14834 net.cpp:100] Creating Layer deconv4_2_relu
I0304 15:17:30.512218 14834 net.cpp:434] deconv4_2_relu <- deconv4_2
I0304 15:17:30.512222 14834 net.cpp:395] deconv4_2_relu -> deconv4_2 (in-place)
I0304 15:17:30.512476 14834 net.cpp:150] Setting up deconv4_2_relu
I0304 15:17:30.512485 14834 net.cpp:157] Top shape: 16 64 12 12 (147456)
I0304 15:17:30.512486 14834 net.cpp:165] Memory required for data: 58908672
I0304 15:17:30.512488 14834 layer_factory.hpp:77] Creating layer deconv4_2_concat
I0304 15:17:30.512491 14834 net.cpp:100] Creating Layer deconv4_2_concat
I0304 15:17:30.512493 14834 net.cpp:434] deconv4_2_concat <- deconv4_2
I0304 15:17:30.512496 14834 net.cpp:434] deconv4_2_concat <- conv3_1_conv3_1_relu_0_split_1
I0304 15:17:30.512500 14834 net.cpp:408] deconv4_2_concat -> deconv4_2_concat
I0304 15:17:30.512518 14834 net.cpp:150] Setting up deconv4_2_concat
I0304 15:17:30.512526 14834 net.cpp:157] Top shape: 16 128 12 12 (294912)
I0304 15:17:30.512529 14834 net.cpp:165] Memory required for data: 60088320
I0304 15:17:30.512532 14834 layer_factory.hpp:77] Creating layer deconv5_1
I0304 15:17:30.512538 14834 net.cpp:100] Creating Layer deconv5_1
I0304 15:17:30.512542 14834 net.cpp:434] deconv5_1 <- deconv4_2_concat
I0304 15:17:30.512548 14834 net.cpp:408] deconv5_1 -> deconv5_1
I0304 15:17:30.512768 14834 net.cpp:150] Setting up deconv5_1
I0304 15:17:30.512774 14834 net.cpp:157] Top shape: 16 32 24 24 (294912)
I0304 15:17:30.512776 14834 net.cpp:165] Memory required for data: 61267968
I0304 15:17:30.512780 14834 layer_factory.hpp:77] Creating layer deconv5_1_relu
I0304 15:17:30.512784 14834 net.cpp:100] Creating Layer deconv5_1_relu
I0304 15:17:30.512785 14834 net.cpp:434] deconv5_1_relu <- deconv5_1
I0304 15:17:30.512789 14834 net.cpp:395] deconv5_1_relu -> deconv5_1 (in-place)
I0304 15:17:30.512892 14834 net.cpp:150] Setting up deconv5_1_relu
I0304 15:17:30.512898 14834 net.cpp:157] Top shape: 16 32 24 24 (294912)
I0304 15:17:30.512899 14834 net.cpp:165] Memory required for data: 62447616
I0304 15:17:30.512902 14834 layer_factory.hpp:77] Creating layer deconv5_1_concat
I0304 15:17:30.512905 14834 net.cpp:100] Creating Layer deconv5_1_concat
I0304 15:17:30.512907 14834 net.cpp:434] deconv5_1_concat <- deconv5_1
I0304 15:17:30.512909 14834 net.cpp:434] deconv5_1_concat <- conv2_2_conv2_2_relu_0_split_1
I0304 15:17:30.512912 14834 net.cpp:408] deconv5_1_concat -> deconv5_1_concat
I0304 15:17:30.512928 14834 net.cpp:150] Setting up deconv5_1_concat
I0304 15:17:30.512933 14834 net.cpp:157] Top shape: 16 96 24 24 (884736)
I0304 15:17:30.512934 14834 net.cpp:165] Memory required for data: 65986560
I0304 15:17:30.512935 14834 layer_factory.hpp:77] Creating layer deconv5_2
I0304 15:17:30.512940 14834 net.cpp:100] Creating Layer deconv5_2
I0304 15:17:30.512943 14834 net.cpp:434] deconv5_2 <- deconv5_1_concat
I0304 15:17:30.512945 14834 net.cpp:408] deconv5_2 -> deconv5_2
I0304 15:17:30.513169 14834 net.cpp:150] Setting up deconv5_2
I0304 15:17:30.513172 14834 net.cpp:157] Top shape: 16 32 24 24 (294912)
I0304 15:17:30.513175 14834 net.cpp:165] Memory required for data: 67166208
I0304 15:17:30.513177 14834 layer_factory.hpp:77] Creating layer deconv5_2_relu
I0304 15:17:30.513181 14834 net.cpp:100] Creating Layer deconv5_2_relu
I0304 15:17:30.513183 14834 net.cpp:434] deconv5_2_relu <- deconv5_2
I0304 15:17:30.513185 14834 net.cpp:395] deconv5_2_relu -> deconv5_2 (in-place)
I0304 15:17:30.513288 14834 net.cpp:150] Setting up deconv5_2_relu
I0304 15:17:30.513291 14834 net.cpp:157] Top shape: 16 32 24 24 (294912)
I0304 15:17:30.513293 14834 net.cpp:165] Memory required for data: 68345856
I0304 15:17:30.513295 14834 layer_factory.hpp:77] Creating layer deconv5_2_concat
I0304 15:17:30.513299 14834 net.cpp:100] Creating Layer deconv5_2_concat
I0304 15:17:30.513300 14834 net.cpp:434] deconv5_2_concat <- deconv5_2
I0304 15:17:30.513303 14834 net.cpp:434] deconv5_2_concat <- conv2_1_conv2_1_relu_0_split_1
I0304 15:17:30.513306 14834 net.cpp:408] deconv5_2_concat -> deconv5_2_concat
I0304 15:17:30.513327 14834 net.cpp:150] Setting up deconv5_2_concat
I0304 15:17:30.513332 14834 net.cpp:157] Top shape: 16 64 24 24 (589824)
I0304 15:17:30.513334 14834 net.cpp:165] Memory required for data: 70705152
I0304 15:17:30.513335 14834 layer_factory.hpp:77] Creating layer deconv6_1
I0304 15:17:30.513340 14834 net.cpp:100] Creating Layer deconv6_1
I0304 15:17:30.513342 14834 net.cpp:434] deconv6_1 <- deconv5_2_concat
I0304 15:17:30.513345 14834 net.cpp:408] deconv6_1 -> deconv6_1
I0304 15:17:30.513496 14834 net.cpp:150] Setting up deconv6_1
I0304 15:17:30.513500 14834 net.cpp:157] Top shape: 16 16 48 48 (589824)
I0304 15:17:30.513502 14834 net.cpp:165] Memory required for data: 73064448
I0304 15:17:30.513505 14834 layer_factory.hpp:77] Creating layer deconv6_1_relu
I0304 15:17:30.513509 14834 net.cpp:100] Creating Layer deconv6_1_relu
I0304 15:17:30.513511 14834 net.cpp:434] deconv6_1_relu <- deconv6_1
I0304 15:17:30.513514 14834 net.cpp:395] deconv6_1_relu -> deconv6_1 (in-place)
I0304 15:17:30.513615 14834 net.cpp:150] Setting up deconv6_1_relu
I0304 15:17:30.513620 14834 net.cpp:157] Top shape: 16 16 48 48 (589824)
I0304 15:17:30.513622 14834 net.cpp:165] Memory required for data: 75423744
I0304 15:17:30.513623 14834 layer_factory.hpp:77] Creating layer deconv6_1_concat
I0304 15:17:30.513628 14834 net.cpp:100] Creating Layer deconv6_1_concat
I0304 15:17:30.513629 14834 net.cpp:434] deconv6_1_concat <- deconv6_1
I0304 15:17:30.513631 14834 net.cpp:434] deconv6_1_concat <- conv1_2_conv1_2_relu_0_split_1
I0304 15:17:30.513635 14834 net.cpp:408] deconv6_1_concat -> deconv6_1_concat
I0304 15:17:30.513649 14834 net.cpp:150] Setting up deconv6_1_concat
I0304 15:17:30.513653 14834 net.cpp:157] Top shape: 16 48 48 48 (1769472)
I0304 15:17:30.513654 14834 net.cpp:165] Memory required for data: 82501632
I0304 15:17:30.513655 14834 layer_factory.hpp:77] Creating layer deconv6_2
I0304 15:17:30.513660 14834 net.cpp:100] Creating Layer deconv6_2
I0304 15:17:30.513664 14834 net.cpp:434] deconv6_2 <- deconv6_1_concat
I0304 15:17:30.513666 14834 net.cpp:408] deconv6_2 -> deconv6_2
I0304 15:17:30.513823 14834 net.cpp:150] Setting up deconv6_2
I0304 15:17:30.513828 14834 net.cpp:157] Top shape: 16 16 48 48 (589824)
I0304 15:17:30.513829 14834 net.cpp:165] Memory required for data: 84860928
I0304 15:17:30.513833 14834 layer_factory.hpp:77] Creating layer deconv6_2_relu
I0304 15:17:30.513836 14834 net.cpp:100] Creating Layer deconv6_2_relu
I0304 15:17:30.513839 14834 net.cpp:434] deconv6_2_relu <- deconv6_2
I0304 15:17:30.513840 14834 net.cpp:395] deconv6_2_relu -> deconv6_2 (in-place)
I0304 15:17:30.514099 14834 net.cpp:150] Setting up deconv6_2_relu
I0304 15:17:30.514107 14834 net.cpp:157] Top shape: 16 16 48 48 (589824)
I0304 15:17:30.514109 14834 net.cpp:165] Memory required for data: 87220224
I0304 15:17:30.514111 14834 layer_factory.hpp:77] Creating layer deconv6_2_concat
I0304 15:17:30.514114 14834 net.cpp:100] Creating Layer deconv6_2_concat
I0304 15:17:30.514117 14834 net.cpp:434] deconv6_2_concat <- deconv6_2
I0304 15:17:30.514119 14834 net.cpp:434] deconv6_2_concat <- conv1_1_conv1_1_relu_0_split_1
I0304 15:17:30.514122 14834 net.cpp:408] deconv6_2_concat -> deconv6_2_concat
I0304 15:17:30.514139 14834 net.cpp:150] Setting up deconv6_2_concat
I0304 15:17:30.514143 14834 net.cpp:157] Top shape: 16 32 48 48 (1179648)
I0304 15:17:30.514145 14834 net.cpp:165] Memory required for data: 91938816
I0304 15:17:30.514147 14834 layer_factory.hpp:77] Creating layer deconv6_3
I0304 15:17:30.514152 14834 net.cpp:100] Creating Layer deconv6_3
I0304 15:17:30.514153 14834 net.cpp:434] deconv6_3 <- deconv6_2_concat
I0304 15:17:30.514158 14834 net.cpp:408] deconv6_3 -> deconv6_3
I0304 15:17:30.514297 14834 net.cpp:150] Setting up deconv6_3
I0304 15:17:30.514302 14834 net.cpp:157] Top shape: 16 1 48 48 (36864)
I0304 15:17:30.514303 14834 net.cpp:165] Memory required for data: 92086272
I0304 15:17:30.514310 14834 layer_factory.hpp:77] Creating layer loss
I0304 15:17:30.514314 14834 net.cpp:100] Creating Layer loss
I0304 15:17:30.514317 14834 net.cpp:434] loss <- deconv6_3
I0304 15:17:30.514324 14834 net.cpp:434] loss <- label
I0304 15:17:30.514329 14834 net.cpp:408] loss -> (automatic)
I0304 15:17:30.514354 14834 net.cpp:150] Setting up loss
…
