…
      sampler {
        min_scale: 0.3
        max_scale: 1
        min_aspect_ratio: 0.5
        max_aspect_ratio: 2
      }
      sample_constraint {
        min_jaccard_overlap: 0.9
      }
      max_sample: 1
      max_trials: 50
    }
    batch_sampler {
      sampler {
        min_scale: 0.3
        max_scale: 1
        min_aspect_ratio: 0.5
        max_aspect_ratio: 2
      }
      sample_constraint {
        max_jaccard_overlap: 1
      }
      max_sample: 1
      max_trials: 50
    }
    label_map_file: "data/VOC0712/labelmap_voc.prototxt"
  }
}
layer {
  name: "conv1/7x7_s2"
  type: "Convolution"
  bottom: "data"
  top: "conv1/7x7_s2"
  param {
    lr_mult: 1
    decay_mult: 1
  }
  param {
    lr_mult: 2
    decay_mult: 0
  }
  convolution_param {
    num_output: 64
    pad: 3
    kernel_size: 7
    stride: 2
    weight_filler {
      type: "xavier"
    }
    bias_filler {
      type: "constant"
    }
  }
}
layer {
  name: "conv1/relu_7x7"
  type: "ReLU"
  bottom: "conv1/7x7_s2"
  top: "conv1/7x7_s2"
}
layer {
  name: "pool1/3x3_s2"
  type: "Pooling"
  bottom: "conv1/7x7_s2"
  top: "pool1/3x3_s2"
  pooling_param {
    pool: MAX
    kernel_size: 3
    stride: 2
  }
}
layer {
  name: "conv2/3x3_reduce"
  type: "Convolution"
  bottom: "pool1/3x3_s2"
  top: "conv2/3x3_reduce"
  param {
    lr_mult: 1
    decay_mult: 1
  }
  param {
    lr_mult: 2
    decay_mult: 0
  }
  convolution_param {
    num_output: 64
    kernel_size: 1
    weight_filler {
      type: "xavier"
    }
    bias_filler {
      type: "constant"
    }
  }
}
layer {
  name: "conv2/relu_3x3_reduce"
  type: "ReLU"
  bottom: "conv2/3x3_reduce"
  top: "conv2/3x3_reduce"
}
layer {
  name: "conv2/3x3"
  type: "Convolution"
  bottom: "conv2/3x3_reduce"
  top: "conv2/3x3"
  param {
    lr_mult: 1
    decay_mult: 1
  }
  param {
    lr_mult: 2
    decay_mult: 0
  }
  convolution_param {
    num_output: 192
    pad: 1
    kernel_size: 3
    weight_filler {
      type: "xavier"
    }
    bias_filler {
      type: "constant"
    }
  }
}
layer {
  name: "conv2/relu_3x3"
  type: "ReLU"
  bottom: "conv2/3x3"
  top: "conv2/3x3"
}
layer {
  name: "pool2/3x3_s2"
  type: "Pooling"
  bottom: "conv2/3x3"
  top: "pool2/3x3_s2"
  pooling_param {
    pool: MAX
    kernel_size: 3
    stride: 2
  }
}
layer {
  name: "inception_3a/1x1"
  type: "Convolution"
  bottom: "pool2/3x3_s2"
  top: "inception_3a/1x1"
  param {
    lr_mult: 1
    decay_mult: 1
  }
  param {
    lr_mult: 2
    decay_mult: 0
  }
  convolution_param {
    num_output: 64
    kernel_size: 1
    weight_filler {
      type: "xavier"
    }
    bias_filler {
      type: "constant"
    }
  }
}
layer {
  name: "inception_3a/relu_1x1"
  type: "ReLU"
  bottom: "inception_3a/1x1"
  top: "inception_3a/1x1"
}
layer {
  name: "inception_3a/3x3_reduce"
  type: "Convolution"
  bottom: "pool2/3x3_s2"
  top: "inception_3a/3x3_reduce"
  param {
    lr_mult: 1
    decay_mult: 1
  }
  param {
    lr_mult: 2
    decay_mult: 0
  }
  convolution_param {
    num_output: 96
    kernel_size: 1
    weight_filler {
      type: "xavier"
    }
    bias_filler {
      type: "constant"
    }
  }
}
layer {
  name: "inception_3a/relu_3x3_reduce"
  type: "ReLU"
  bottom: "inception_3a/3x3_reduce"
  top: "inception_3a/3x3_reduce"
}
layer {
  name: "inception_3a/3x3"
  type: "Convolution"
  bottom: "inception_3a/3x3_reduce"
  top: "inception_3a/3x3"
  param {
    lr_mult: 1
    decay_mult: 1
  }
  param {
    lr_mult: 2
    decay_mult: 0
  }
  convolution_param {
    num_output: 128
    pad: 1
    kernel_size: 3
    weight_filler {
      type: "xavier"
    }
    bias_filler {
      type: "constant"
    }
  }
}
layer {
  name: "inception_3a/relu_3x3"
  type: "ReLU"
  bottom: "inception_3a/3x3"
  top: "inception_3a/3x3"
}
layer {
  name: "inception_3a/5x5_reduce"
  type: "Convolution"
  bottom: "pool2/3x3_s2"
  top: "inception_3a/5x5_reduce"
  param {
    lr_mult: 1
    decay_mult: 1
  }
  param {
    lr_mult: 2
    decay_mult: 0
  }
  convolution_param {
    num_output: 16
    kernel_size: 1
    weight_filler {
      type: "xavier"
    }
    bias_filler {
      type: "constant"
    }
  }
}
layer {
  name: "inception_3a/relu_5x5_reduce"
  type: "ReLU"
  bottom: "inception_3a/5x5_reduce"
  top: "inception_3a/5x5_reduce"
}
layer {
  name: "inception_3a/5x5"
  type: "Convolution"
  bottom: "inception_3a/5x5_reduce"
  top: "inception_3a/5x5"
  param {
    lr_mult: 1
    decay_mult: 1
  }
  param {
    lr_mult: 2
    decay_mult: 0
  }
  convolution_param {
    num_output: 32
    pad: 2
    kernel_size: 5
    weight_filler {
      type: "xavier"
    }
    bias_filler {
      type: "constant"
    }
  }
}
layer {
  name: "inception_3a/relu_5x5"
  type: "ReLU"
  bottom: "inception_3a/5x5"
  top: "inception_3a/5x5"
}
layer {
  name: "inception_3a/pool"
  type: "Pooling"
  bottom: "pool2/3x3_s2"
  top: "inception_3a/pool"
  pooling_param {
    pool: MAX
    kernel_size: 3
    stride: 1
    pad: 1
  }
}
layer {
  name: "inception_3a/pool_proj"
  type: "Convolution"
  bottom: "inception_3a/pool"
  top: "inception_3a/pool_proj"
  param {
    lr_mult: 1
    decay_mult: 1
  }
  param {
    lr_mult: 2
    decay_mult: 0
  }
  convolution_param {
    num_output: 32
    kernel_size: 1
    weight_filler {
      type: "xavier"
    }
    bias_filler {
      type: "constant"
    }
  }
}
layer {
  name: "inception_3a/relu_pool_proj"
  type: "ReLU"
  bottom: "inception_3a/pool_proj"
  top: "inception_3a/pool_proj"
}
layer {
  name: "inception_3a/output"
  type: "Concat"
  bottom: "inception_3a/1x1"
  bottom: "inception_3a/3x3"
  bottom: "inception_3a/5x5"
  bottom: "inception_3a/pool_proj"
  top: "inception_3a/output"
}
layer {
  name: "inception_3b/1x1"
  type: "Convolution"
  bottom: "inception_3a/output"
  top: "inception_3b/1x1"
  param {
    lr_mult: 1
    decay_mult: 1
  }
  param {
    lr_mult: 2
    decay_mult: 0
  }
  convolution_param {
    num_output: 128
    kernel_size: 1
    weight_filler {
      type: "xavier"
    }
    bias_filler {
      type: "constant"
    }
  }
}
layer {
  name: "inception_3b/relu_1x1"
  type: "ReLU"
  bottom: "inception_3b/1x1"
  top: "inception_3b/1x1"
}
layer {
  name: "inception_3b/3x3_reduce"
  type: "Convolution"
  bottom: "inception_3a/output"
  top: "inception_3b/3x3_reduce"
  param {
    lr_mult: 1
    decay_mult: 1
  }
  param {
    lr_mult: 2
    decay_mult: 0
  }
  convolution_param {
    num_output: 128
    kernel_size: 1
    weight_filler {
      type: "xavier"
    }
    bias_filler {
      type: "constant"
    }
  }
}
layer {
  name: "inception_3b/relu_3x3_reduce"
  type: "ReLU"
  bottom: "inception_3b/3x3_reduce"
  top: "inception_3b/3x3_reduce"
}
layer {
  name: "inception_3b/3x3"
  type: "Convolution"
  bottom: "inception_3b/3x3_reduce"
  top: "inception_3b/3x3"
  param {
    lr_mult: 1
    decay_mult: 1
  }
  param {
    lr_mult: 2
    decay_mult: 0
  }
  convolution_param {
    num_output: 192
    pad: 1
    kernel_size: 3
    weight_filler {
      type: "xavier"
    }
    bias_filler {
      type: "constant"
    }
  }
}
layer {
  name: "inception_3b/relu_3x3"
  type: "ReLU"
  bottom: "inception_3b/3x3"
  top: "inception_3b/3x3"
}
layer {
  name: "inception_3b/5x5_reduce"
  type: "Convolution"
  bottom: "inception_3a/output"
  top: "inception_3b/5x5_reduce"
  param {
    lr_mult: 1
    decay_mult: 1
  }
  param {
    lr_mult: 2
    decay_mult: 0
  }
  convolution_param {
    num_output: 32
    kernel_size: 1
    weight_filler {
      type: "xavier"
    }
    bias_filler {
      type: "constant"
    }
  }
}
layer {
  name: "inception_3b/relu_5x5_reduce"
  type: "ReLU"
  bottom: "inception_3b/5x5_reduce"
  top: "inception_3b/5x5_reduce"
}
layer {
  name: "inception_3b/5x5"
  type: "Convolution"
  bottom: "inception_3b/5x5_reduce"
  top: "inception_3b/5x5"
  param {
    lr_mult: 1
    decay_mult: 1
  }
  param {
    lr_mult: 2
    decay_mult: 0
  }
  convolution_param {
    num_output: 96
    pad: 2
    kernel_size: 5
    weight_filler {
      type: "xavier"
    }
    bias_filler {
      type: "constant"
    }
  }
}
layer {
  name: "inception_3b/relu_5x5"
  type: "ReLU"
  bottom: "inception_3b/5x5"
  top: "inception_3b/5x5"
}
layer {
  name: "inception_3b/pool"
  type: "Pooling"
  bottom: "inception_3a/output"
  top: "inception_3b/pool"
  pooling_param {
    pool: MAX
    kernel_size: 3
    stride: 1
    pad: 1
  }
}
layer {
  name: "inception_3b/pool_proj"
  type: "Convolution"
  bottom: "inception_3b/pool"
  top: "inception_3b/pool_proj"
  param {
    lr_mult: 1
    decay_mult: 1
  }
  param {
    lr_mult: 2
    decay_mult: 0
  }
  convolution_param {
    num_output: 64
    kernel_size: 1
    weight_filler {
      type: "xavier"
    }
    bias_filler {
      type: "constant"
    }
  }
}
layer {
  name: "inception_3b/relu_pool_proj"
  type: "ReLU"
  bottom: "inception_3b/pool_proj"
  top: "inception_3b/pool_proj"
}
layer {
  name: "inception_3b/output"
  type: "Concat"
  bottom: "inception_3b/1x1"
  bottom: "inception_3b/3x3"
  bottom: "inception_3b/5x5"
  bottom: "inception_3b/pool_proj"
  top: "inception_3b/output"
}
layer {
  name: "pool3/3x3_s2"
  type: "Pooling"
  bottom: "inception_3b/output"
  top: "pool3/3x3_s2"
  pooling_param {
    pool: MAX
    kernel_size: 3
    stride: 2
  }
}
layer {
  name: "inception_4a/1x1"
  type: "Convolution"
  bottom: "pool3/3x3_s2"
  top: "inception_4a/1x1"
  param {
    lr_mult: 1
    decay_mult: 1
  }
  param {
    lr_mult: 2
    decay_mult: 0
  }
  convolution_param {
    num_output: 192
    kernel_size: 1
    weight_filler {
      type: "xavier"
    }
    bias_filler {
      type: "constant"
    }
  }
}
layer {
  name: "inception_4a/relu_1x1"
  type: "ReLU"
  bottom: "inception_4a/1x1"
  top: "inception_4a/1x1"
}
layer {
  name: "inception_4a/3x3_reduce"
  type: "Convolution"
  bottom: "pool3/3x3_s2"
  top: "inception_4a/3x3_reduce"
  param {
    lr_mult: 1
    decay_mult: 1
  }
  param {
    lr_mult: 2
    decay_mult: 0
  }
  convolution_param {
    num_output: 96
    kernel_size: 1
    weight_filler {
      type: "xavier"
    }
    bias_filler {
      type: "constant"
    }
  }
}
layer {
  name: "inception_4a/relu_3x3_reduce"
  type: "ReLU"
  bottom: "inception_4a/3x3_reduce"
  top: "inception_4a/3x3_reduce"
}
layer {
  name: "inception_4a/3x3"
  type: "Convolution"
  bottom: "inception_4a/3x3_reduce"
  top: "inception_4a/3x3"
  param {
    lr_mult: 1
    decay_mult: 1
  }
  param {
    lr_mult: 2
    decay_mult: 0
  }
  convolution_param {
    num_output: 208
    pad: 1
    kernel_size: 3
    weight_filler {
      type: "xavier"
    }
    bias_filler {
      type: "constant"
    }
  }
}
layer {
  name: "inception_4a/relu_3x3"
  type: "ReLU"
  bottom: "inception_4a/3x3"
  top: "inception_4a/3x3"
}
layer {
  name: "inception_4a/5x5_reduce"
  type: "Convolution"
  bottom: "pool3/3x3_s2"
  top: "inception_4a/5x5_reduce"
  param {
    lr_mult: 1
    decay_mult: 1
  }
  param {
    lr_mult: 2
    decay_mult: 0
  }
  convolution_param {
    num_output: 16
    kernel_size: 1
    weight_filler {
      type: "xavier"
    }
    bias_filler {
      type: "constant"
    }
  }
}
layer {
  name: "inception_4a/relu_5x5_reduce"
  type: "ReLU"
  bottom: "inception_4a/5x5_reduce"
  top: "inception_4a/5x5_reduce"
}
layer {
  name: "inception_4a/5x5"
  type: "Convolution"
  bottom: "inception_4a/5x5_reduce"
  top: "inception_4a/5x5"
  param {
    lr_mult: 1
    decay_mult: 1
  }
  param {
    lr_mult: 2
    decay_mult: 0
  }
  convolution_param {
    num_output: 48
    pad: 2
    kernel_size: 5
    weight_filler {
      type: "xavier"
    }
    bias_filler {
      type: "constant"
    }
  }
}
layer {
  name: "inception_4a/relu_5x5"
  type: "ReLU"
  bottom: "inception_4a/5x5"
  top: "inception_4a/5x5"
}
layer {
  name: "inception_4a/pool"
  type: "Pooling"
  bottom: "pool3/3x3_s2"
  top: "inception_4a/pool"
  pooling_param {
    pool: MAX
    kernel_size: 3
    stride: 1
    pad: 1
  }
}
layer {
  name: "inception_4a/pool_proj"
  type: "Convolution"
  bottom: "inception_4a/pool"
  top: "inception_4a/pool_proj"
  param {
    lr_mult: 1
    decay_mult: 1
  }
  param {
    lr_mult: 2
    decay_mult: 0
  }
  convolution_param {
    num_output: 64
    kernel_size: 1
    weight_filler {
      type: "xavier"
    }
    bias_filler {
      type: "constant"
    }
  }
}
layer {
  name: "inception_4a/relu_pool_proj"
  type: "ReLU"
  bottom: "inception_4a/pool_proj"
  top: "inception_4a/pool_proj"
}
layer {
  name: "inception_4a/output"
  type: "Concat"
  bottom: "inception_4a/1x1"
  bottom: "inception_4a/3x3"
  bottom: "inception_4a/5x5"
  bottom: "inception_4a/pool_proj"
  top: "inception_4a/output"
}
layer {
  name: "inception_4b/1x1"
  type: "Convolution"
  bottom: "inception_4a/output"
  top: "inception_4b/1x1"
  param {
    lr_mult: 1
    decay_mult: 1
  }
  param {
    lr_mult: 2
    decay_mult: 0
  }
  convolution_param {
    num_output: 160
    kernel_size: 1
    weight_filler {
      type: "xavier"
    }
    bias_filler {
      type: "constant"
    }
  }
}
layer {
  name: "inception_4b/relu_1x1"
  type: "ReLU"
  bottom: "inception_4b/1x1"
  top: "inception_4b/1x1"
}
layer {
  name: "inception_4b/3x3_reduce"
  type: "Convolution"
  bottom: "inception_4a/output"
  top: "inception_4b/3x3_reduce"
  param {
    lr_mult: 1
    decay_mult: 1
  }
  param {
    lr_mult: 2
    decay_mult: 0
  }
  convolution_param {
    num_output: 112
    kernel_size: 1
    weight_filler {
      type: "xavier"
    }
    bias_filler {
      type: "constant"
    }
  }
}
layer {
  name: "inception_4b/relu_3x3_reduce"
  type: "ReLU"
  bottom: "inception_4b/3x3_reduce"
  top: "inception_4b/3x3_reduce"
}
layer {
  name: "inception_4b/3x3"
  type: "Convolution"
  bottom: "inception_4b/3x3_reduce"
  top: "inception_4b/3x3"
  param {
    lr_mult: 1
    decay_mult: 1
  }
  param {
    lr_mult: 2
    decay_mult: 0
  }
  convolution_param {
    num_output: 224
    pad: 1
    kernel_size: 3
    weight_filler {
      type: "xavier"
    }
    bias_filler {
      type: "constant"
    }
  }
}
layer {
  name: "inception_4b/relu_3x3"
  type: "ReLU"
  bottom: "inception_4b/3x3"
  top: "inception_4b/3x3"
}
layer {
  name: "inception_4b/5x5_reduce"
  type: "Convolution"
  bottom: "inception_4a/output"
  top: "inception_4b/5x5_reduce"
  param {
    lr_mult: 1
    decay_mult: 1
  }
  param {
    lr_mult: 2
    decay_mult: 0
  }
  convolution_param {
    num_output: 24
    kernel_size: 1
    weight_filler {
      type: "xavier"
    }
    bias_filler {
      type: "constant"
    }
  }
}
layer {
  name: "inception_4b/relu_5x5_reduce"
  type: "ReLU"
  bottom: "inception_4b/5x5_reduce"
  top: "inception_4b/5x5_reduce"
}
layer {
  name: "inception_4b/5x5"
  type: "Convolution"
  bottom: "inception_4b/5x5_reduce"
  top: "inception_4b/5x5"
  param {
    lr_mult: 1
    decay_mult: 1
  }
  param {
    lr_mult: 2
    decay_mult: 0
  }
  convolution_param {
    num_output: 64
    pad: 2
    kernel_size: 5
    weight_filler {
      type: "xavier"
    }
    bias_filler {
      type: "constant"
    }
  }
}
layer {
  name: "inception_4b/relu_5x5"
  type: "ReLU"
  bottom: "inception_4b/5x5"
  top: "inception_4b/5x5"
}
layer {
  name: "inception_4b/pool"
  type: "Pooling"
  bottom: "inception_4a/output"
  top: "inception_4b/pool"
  pooling_param {
    pool: MAX
    kernel_size: 3
    stride: 1
    pad: 1
  }
}
layer {
  name: "inception_4b/pool_proj"
  type: "Convolution"
  bottom: "inception_4b/pool"
  top: "inception_4b/pool_proj"
  param {
    lr_mult: 1
    decay_mult: 1
  }
  param {
    lr_mult: 2
    decay_mult: 0
  }
  convolution_param {
    num_output: 64
    kernel_size: 1
    weight_filler {
      type: "xavier"
    }
    bias_filler {
      type: "constant"
    }
  }
}
layer {
  name: "inception_4b/relu_pool_proj"
  type: "ReLU"
  bottom: "inception_4b/pool_proj"
  top: "inception_4b/pool_proj"
}
layer {
  name: "inception_4b/output"
  type: "Concat"
  bottom: "inception_4b/1x1"
  bottom: "inception_4b/3x3"
  bottom: "inception_4b/5x5"
  bottom: "inception_4b/pool_proj"
  top: "inception_4b/output"
}
layer {
  name: "inception_4c/1x1"
  type: "Convolution"
  bottom: "inception_4b/output"
  top: "inception_4c/1x1"
  param {
    lr_mult: 1
    decay_mult: 1
  }
  param {
    lr_mult: 2
    decay_mult: 0
  }
  convolution_param {
    num_output: 128
    kernel_size: 1
    weight_filler {
      type: "xavier"
    }
    bias_filler {
      type: "constant"
    }
  }
}
layer {
  name: "inception_4c/relu_1x1"
  type: "ReLU"
  bottom: "inception_4c/1x1"
  top: "inception_4c/1x1"
}
layer {
  name: "inception_4c/3x3_reduce"
  type: "Convolution"
  bottom: "inception_4b/output"
  top: "inception_4c/3x3_reduce"
  param {
    lr_mult: 1
    decay_mult: 1
  }
  param {
    lr_mult: 2
    decay_mult: 0
  }
  convolution_param {
    num_output: 128
    kernel_size: 1
    weight_filler {
      type: "xavier"
    }
    bias_filler {
      type: "constant"
    }
  }
}
layer {
  name: "inception_4c/relu_3x3_reduce"
  type: "ReLU"
  bottom: "inception_4c/3x3_reduce"
  top: "inception_4c/3x3_reduce"
}
layer {
  name: "inception_4c/3x3"
  type: "Convolution"
  bottom: "inception_4c/3x3_reduce"
  top: "inception_4c/3x3"
  param {
    lr_mult: 1
    decay_mult: 1
  }
  param {
    lr_mult: 2
    decay_mult: 0
  }
  convolution_param {
    num_output: 256
    pad: 1
    kernel_size: 3
    weight_filler {
      type: "xavier"
    }
    bias_filler {
      type: "constant"
    }
  }
}
layer {
  name: "inception_4c/relu_3x3"
  type: "ReLU"
  bottom: "inception_4c/3x3"
  top: "inception_4c/3x3"
}
layer {
  name: "inception_4c/5x5_reduce"
  type: "Convolution"
  bottom: "inception_4b/output"
  top: "inception_4c/5x5_reduce"
  param {
    lr_mult: 1
    decay_mult: 1
  }
  param {
    lr_mult: 2
    decay_mult: 0
  }
  convolution_param {
    num_output: 24
    kernel_size: 1
    weight_filler {
      type: "xavier"
    }
    bias_filler {
      type: "constant"
    }
  }
}
layer {
  name: "inception_4c/relu_5x5_reduce"
  type: "ReLU"
  bottom: "inception_4c/5x5_reduce"
  top: "inception_4c/5x5_reduce"
}
layer {
  name: "inception_4c/5x5"
  type: "Convolution"
  bottom: "inception_4c/5x5_reduce"
  top: "inception_4c/5x5"
  param {
    lr_mult: 1
    decay_mult: 1
  }
  param {
    lr_mult: 2
    decay_mult: 0
  }
  convolution_param {
    num_output: 64
    pad: 2
    kernel_size: 5
    weight_filler {
      type: "xavier"
    }
    bias_filler {
      type: "constant"
    }
  }
}
layer {
  name: "inception_4c/relu_5x5"
  type: "ReLU"
  bottom: "inception_4c/5x5"
  top: "inception_4c/5x5"
}
layer {
  name: "inception_4c/pool"
  type: "Pooling"
  bottom: "inception_4b/output"
  top: "inception_4c/pool"
  pooling_param {
    pool: MAX
    kernel_size: 3
    stride: 1
    pad: 1
  }
}
layer {
  name: "inception_4c/pool_proj"
  type: "Convolution"
  bottom: "inception_4c/pool"
  top: "inception_4c/pool_proj"
  param {
    lr_mult: 1
    decay_mult: 1
  }
  param {
    lr_mult: 2
    decay_mult: 0
  }
  convolution_param {
    num_output: 64
    kernel_size: 1
    weight_filler {
      type: "xavier"
    }
    bias_filler {
      type: "constant"
    }
  }
}
layer {
  name: "inception_4c/relu_pool_proj"
  type: "ReLU"
  bottom: "inception_4c/pool_proj"
  top: "inception_4c/pool_proj"
}
layer {
  name: "inception_4c/output"
  type: "Concat"
  bottom: "inception_4c/1x1"
  bottom: "inception_4c/3x3"
  bottom: "inception_4c/5x5"
  bottom: "inception_4c/pool_proj"
  top: "inception_4c/output"
}
layer {
  name: "inception_4d/1x1"
  type: "Convolution"
  bottom: "inception_4c/output"
  top: "inception_4d/1x1"
  param {
    lr_mult: 1
    decay_mult: 1
  }
  param {
    lr_mult: 2
    decay_mult: 0
  }
  convolution_param {
    num_output: 112
    kernel_size: 1
    weight_filler {
      type: "xavier"
    }
    bias_filler {
      type: "constant"
    }
  }
}
layer {
  name: "inception_4d/relu_1x1"
  type: "ReLU"
  bottom: "inception_4d/1x1"
  top: "inception_4d/1x1"
}
layer {
  name: "inception_4d/3x3_reduce"
  type: "Convolution"
  bottom: "inception_4c/output"
  top: "inception_4d/3x3_reduce"
  param {
    lr_mult: 1
    decay_mult: 1
  }
  param {
    lr_mult: 2
    decay_mult: 0
  }
  convolution_param {
    num_output: 144
    kernel_size: 1
    weight_filler {
      type: "xavier"
    }
    bias_filler {
      type: "constant"
    }
  }
}
layer {
  name: "inception_4d/relu_3x3_reduce"
  type: "ReLU"
  bottom: "inception_4d/3x3_reduce"
  top: "inception_4d/3x3_reduce"
}
layer {
  name: "inception_4d/3x3"
  type: "Convolution"
  bottom: "inception_4d/3x3_reduce"
  top: "inception_4d/3x3"
  param {
    lr_mult: 1
    decay_mult: 1
  }
  param {
    lr_mult: 2
    decay_mult: 0
  }
  convolution_param {
    num_output: 288
    pad: 1
    kernel_size: 3
    weight_filler {
      type: "xavier"
    }
    bias_filler {
      type: "constant"
    }
  }
}
layer {
  name: "inception_4d/relu_3x3"
  type: "ReLU"
  bottom: "inception_4d/3x3"
  top: "inception_4d/3x3"
}
layer {
  name: "inception_4d/5x5_reduce"
  type: "Convolution"
  bottom: "inception_4c/output"
  top: "inception_4d/5x5_reduce"
  param {
    lr_mult: 1
    decay_mult: 1
  }
  param {
    lr_mult: 2
    decay_mult: 0
  }
  convolution_param {
    num_output: 32
    kernel_size: 1
    weight_filler {
      type: "xavier"
    }
    bias_filler {
      type: "constant"
    }
  }
}
layer {
  name: "inception_4d/relu_5x5_reduce"
  type: "ReLU"
  bottom: "inception_4d/5x5_reduce"
  top: "inception_4d/5x5_reduce"
}
layer {
  name: "inception_4d/5x5"
  type: "Convolution"
  bottom: "inception_4d/5x5_reduce"
  top: "inception_4d/5x5"
  param {
    lr_mult: 1
    decay_mult: 1
  }
  param {
    lr_mult: 2
    decay_mult: 0
  }
  convolution_param {
    num_output: 64
    pad: 2
    kernel_size: 5
    weight_filler {
      type: "xavier"
    }
    bias_filler {
      type: "constant"
    }
  }
}
layer {
  name: "inception_4d/relu_5x5"
  type: "ReLU"
  bottom: "inception_4d/5x5"
  top: "inception_4d/5x5"
}
layer {
  name: "inception_4d/pool"
  type: "Pooling"
  bottom: "inception_4c/output"
  top: "inception_4d/pool"
  pooling_param {
    pool: MAX
    kernel_size: 3
    stride: 1
    pad: 1
  }
}
layer {
  name: "inception_4d/pool_proj"
  type: "Convolution"
  bottom: "inception_4d/pool"
  top: "inception_4d/pool_proj"
  param {
    lr_mult: 1
    decay_mult: 1
  }
  param {
    lr_mult: 2
    decay_mult: 0
  }
  convolution_param {
    num_output: 64
    kernel_size: 1
    weight_filler {
      type: "xavier"
    }
    bias_filler {
      type: "constant"
    }
  }
}
layer {
  name: "inception_4d/relu_pool_proj"
  type: "ReLU"
  bottom: "inception_4d/pool_proj"
  top: "inception_4d/pool_proj"
}
layer {
  name: "inception_4d/output"
  type: "Concat"
  bottom: "inception_4d/1x1"
  bottom: "inception_4d/3x3"
  bottom: "inception_4d/5x5"
  bottom: "inception_4d/pool_proj"
  top: "inception_4d/output"
}
layer {
  name: "inception_4e/1x1"
  type: "Convolution"
  bottom: "inception_4d/output"
  top: "inception_4e/1x1"
  param {
    lr_mult: 1
    decay_mult: 1
  }
  param {
    lr_mult: 2
    decay_mult: 0
  }
  convolution_param {
    num_output: 256
    kernel_size: 1
    weight_filler {
      type: "xavier"
    }
    bias_filler {
      type: "constant"
    }
  }
}
layer {
  name: "inception_4e/relu_1x1"
  type: "ReLU"
  bottom: "inception_4e/1x1"
  top: "inception_4e/1x1"
}
layer {
  name: "inception_4e/3x3_reduce"
  type: "Convolution"
  bottom: "inception_4d/output"
  top: "inception_4e/3x3_reduce"
  param {
    lr_mult: 1
    decay_mult: 1
  }
  param {
    lr_mult: 2
    decay_mult: 0
  }
  convolution_param {
    num_output: 160
    kernel_size: 1
    weight_filler {
      type: "xavier"
    }
    bias_filler {
      type: "constant"
    }
  }
}
layer {
  name: "inception_4e/relu_3x3_reduce"
  type: "ReLU"
  bottom: "inception_4e/3x3_reduce"
  top: "inception_4e/3x3_reduce"
}
layer {
  name: "inception_4e/3x3"
  type: "Convolution"
  bottom: "inception_4e/3x3_reduce"
  top: "inception_4e/3x3"
  param {
    lr_mult: 1
    decay_mult: 1
  }
  param {
    lr_mult: 2
    decay_mult: 0
  }
  convolution_param {
    num_output: 320
    pad: 1
    kernel_size: 3
    weight_filler {
      type: "xavier"
    }
    bias_filler {
      type: "constant"
    }
  }
}
layer {
  name: "inception_4e/relu_3x3"
  type: "ReLU"
  bottom: "inception_4e/3x3"
  top: "inception_4e/3x3"
}
layer {
  name: "inception_4e/5x5_reduce"
  type: "Convolution"
  bottom: "inception_4d/output"
  top: "inception_4e/5x5_reduce"
  param {
    lr_mult: 1
    decay_mult: 1
  }
  param {
    lr_mult: 2
    decay_mult: 0
  }
  convolution_param {
    num_output: 32
    kernel_size: 1
    weight_filler {
      type: "xavier"
    }
    bias_filler {
      type: "constant"
    }
  }
}
layer {
  name: "inception_4e/relu_5x5_reduce"
  type: "ReLU"
  bottom: "inception_4e/5x5_reduce"
  top: "inception_4e/5x5_reduce"
}
layer {
  name: "inception_4e/5x5"
  type: "Convolution"
  bottom: "inception_4e/5x5_reduce"
  top: "inception_4e/5x5"
  param {
    lr_mult: 1
    decay_mult: 1
  }
  param {
    lr_mult: 2
    decay_mult: 0
  }
  convolution_param {
    num_output: 128
    pad: 2
    kernel_size: 5
    weight_filler {
      type: "xavier"
    }
    bias_filler {
      type: "constant"
    }
  }
}
layer {
  name: "inception_4e/relu_5x5"
  type: "ReLU"
  bottom: "inception_4e/5x5"
  top: "inception_4e/5x5"
}
layer {
  name: "inception_4e/pool"
  type: "Pooling"
  bottom: "inception_4d/output"
  top: "inception_4e/pool"
  pooling_param {
    pool: MAX
    kernel_size: 3
    stride: 1
    pad: 1
  }
}
layer {
  name: "inception_4e/pool_proj"
  type: "Convolution"
  bottom: "inception_4e/pool"
  top: "inception_4e/pool_proj"
  param {
    lr_mult: 1
    decay_mult: 1
  }
  param {
    lr_mult: 2
    decay_mult: 0
  }
  convolution_param {
    num_output: 128
    kernel_size: 1
    weight_filler {
      type: "xavier"
    }
    bias_filler {
      type: "constant"
    }
  }
}
layer {
  name: "inception_4e/relu_pool_proj"
  type: "ReLU"
  bottom: "inception_4e/pool_proj"
  top: "inception_4e/pool_proj"
}
layer {
  name: "inception_4e/output"
  type: "Concat"
  bottom: "inception_4e/1x1"
  bottom: "inception_4e/3x3"
  bottom: "inception_4e/5x5"
  bottom: "inception_4e/pool_proj"
  top: "inception_4e/output"
}
layer {
  name: "conv6_1"
  type: "Convolution"
  bottom: "inception_4e/output"
  top: "conv6_1"
  param {
    lr_mult: 1
    decay_mult: 1
  }
  param {
    lr_mult: 2
    decay_mult: 0
  }
  convolution_param {
    num_output: 256
    pad: 0
    kernel_size: 1
    stride: 1
    weight_filler {
      type: "xavier"
    }
    bias_filler {
      type: "constant"
      value: 0
    }
  }
}
layer {
  name: "conv6_1_relu"
  type: "ReLU"
  bottom: "conv6_1"
  top: "conv6_1"
}
layer {
  name: "conv6_2"
  type: "Convolution"
  bottom: "conv6_1"
  top: "conv6_2"
  param {
    lr_mult: 1
    decay_mult: 1
  }
  param {
    lr_mult: 2
    decay_mult: 0
  }
  convolution_param {
    num_output: 512
    pad: 1
    kernel_size: 3
    stride: 2
    weight_filler {
      type: "xavier"
    }
    bias_filler {
      type: "constant"
      value: 0
    }
  }
}
layer {
  name: "conv6_2_relu"
  type: "ReLU"
  bottom: "conv6_2"
  top: "conv6_2"
}
layer {
  name: "conv7_1"
  type: "Convolution"
  bottom: "conv6_2"
  top: "conv7_1"
  param {
    lr_mult: 1
    decay_mult: 1
  }
  param {
    lr_mult: 2
    decay_mult: 0
  }
  convolution_param {
    num_output: 128
    pad: 0
    kernel_size: 1
    stride: 1
    weight_filler {
      type: "xavier"
    }
    bias_filler {
      type: "constant"
      value: 0
    }
  }
}
layer {
  name: "conv7_1_relu"
  type: "ReLU"
  bottom: "conv7_1"
  top: "conv7_1"
}
layer {
  name: "conv7_2"
  type: "Convolution"
  bottom: "conv7_1"
  top: "conv7_2"
  param {
    lr_mult: 1
    decay_mult: 1
  }
  param {
    lr_mult: 2
    decay_mult: 0
  }
  convolution_param {
    num_output: 256
    pad: 1
    kernel_size: 3
    stride: 2
    weight_filler {
      type: "xavier"
    }
    bias_filler {
      t
I0302 23:46:50.207083  8067 layer_factory.hpp:77] Creating layer data
I0302 23:46:50.225925  8067 cvppp_data_layer.cpp:68] Database Nums: 250
I0302 23:46:50.225939  8067 net.cpp:100] Creating Layer data
I0302 23:46:50.225947  8067 net.cpp:408] data -> data
I0302 23:46:50.225966  8067 net.cpp:408] data -> label
I0302 23:46:50.236582  8067 cvppp_data_layer.cpp:89] output data size: 16,4,300,300
I0302 23:46:50.259479  8067 net.cpp:150] Setting up data
I0302 23:46:50.259497  8067 net.cpp:157] Top shape: 16 4 300 300 (5760000)
I0302 23:46:50.259502  8067 net.cpp:157] Top shape: 1 1 800 8 (6400)
I0302 23:46:50.259505  8067 net.cpp:165] Memory required for data: 23065600
I0302 23:46:50.259510  8067 layer_factory.hpp:77] Creating layer data_data_0_split
I0302 23:46:50.259519  8067 net.cpp:100] Creating Layer data_data_0_split
I0302 23:46:50.259523  8067 net.cpp:434] data_data_0_split <- data
I0302 23:46:50.259531  8067 net.cpp:408] data_data_0_split -> data_data_0_split_0
I0302 23:46:50.259539  8067 net.cpp:408] data_data_0_split -> data_data_0_split_1
I0302 23:46:50.259543  8067 net.cpp:408] data_data_0_split -> data_data_0_split_2
I0302 23:46:50.259547  8067 net.cpp:408] data_data_0_split -> data_data_0_split_3
I0302 23:46:50.259551  8067 net.cpp:408] data_data_0_split -> data_data_0_split_4
I0302 23:46:50.259554  8067 net.cpp:408] data_data_0_split -> data_data_0_split_5
I0302 23:46:50.259557  8067 net.cpp:408] data_data_0_split -> data_data_0_split_6
I0302 23:46:50.259627  8067 net.cpp:150] Setting up data_data_0_split
I0302 23:46:50.259632  8067 net.cpp:157] Top shape: 16 4 300 300 (5760000)
I0302 23:46:50.259635  8067 net.cpp:157] Top shape: 16 4 300 300 (5760000)
I0302 23:46:50.259637  8067 net.cpp:157] Top shape: 16 4 300 300 (5760000)
I0302 23:46:50.259639  8067 net.cpp:157] Top shape: 16 4 300 300 (5760000)
I0302 23:46:50.259651  8067 net.cpp:157] Top shape: 16 4 300 300 (5760000)
I0302 23:46:50.259654  8067 net.cpp:157] Top shape: 16 4 300 300 (5760000)
I0302 23:46:50.259657  8067 net.cpp:157] Top shape: 16 4 300 300 (5760000)
I0302 23:46:50.259658  8067 net.cpp:165] Memory required for data: 184345600
I0302 23:46:50.259661  8067 layer_factory.hpp:77] Creating layer conv1/7x7_s2
I0302 23:46:50.259671  8067 net.cpp:100] Creating Layer conv1/7x7_s2
I0302 23:46:50.259673  8067 net.cpp:434] conv1/7x7_s2 <- data_data_0_split_0
I0302 23:46:50.259677  8067 net.cpp:408] conv1/7x7_s2 -> conv1/7x7_s2
I0302 23:46:50.395594  8067 net.cpp:150] Setting up conv1/7x7_s2
I0302 23:46:50.395612  8067 net.cpp:157] Top shape: 16 64 150 150 (23040000)
I0302 23:46:50.395615  8067 net.cpp:165] Memory required for data: 276505600
I0302 23:46:50.395624  8067 layer_factory.hpp:77] Creating layer conv1/relu_7x7
I0302 23:46:50.395632  8067 net.cpp:100] Creating Layer conv1/relu_7x7
I0302 23:46:50.395635  8067 net.cpp:434] conv1/relu_7x7 <- conv1/7x7_s2
I0302 23:46:50.395638  8067 net.cpp:395] conv1/relu_7x7 -> conv1/7x7_s2 (in-place)
I0302 23:46:50.395758  8067 net.cpp:150] Setting up conv1/relu_7x7
I0302 23:46:50.395764  8067 net.cpp:157] Top shape: 16 64 150 150 (23040000)
I0302 23:46:50.395766  8067 net.cpp:165] Memory required for data: 368665600
I0302 23:46:50.395768  8067 layer_factory.hpp:77] Creating layer pool1/3x3_s2
I0302 23:46:50.395774  8067 net.cpp:100] Creating Layer pool1/3x3_s2
I0302 23:46:50.395776  8067 net.cpp:434] pool1/3x3_s2 <- conv1/7x7_s2
I0302 23:46:50.395779  8067 net.cpp:408] pool1/3x3_s2 -> pool1/3x3_s2
I0302 23:46:50.395810  8067 net.cpp:150] Setting up pool1/3x3_s2
I0302 23:46:50.395815  8067 net.cpp:157] Top shape: 16 64 75 75 (5760000)
I0302 23:46:50.395817  8067 net.cpp:165] Memory required for data: 391705600
I0302 23:46:50.395819  8067 layer_factory.hpp:77] Creating layer conv2/3x3_reduce
I0302 23:46:50.395826  8067 net.cpp:100] Creating Layer conv2/3x3_reduce
I0302 23:46:50.395828  8067 net.cpp:434] conv2/3x3_reduce <- pool1/3x3_s2
I0302 23:46:50.395831  8067 net.cpp:408] conv2/3x3_reduce -> conv2/3x3_reduce
I0302 23:46:50.396575  8067 net.cpp:150] Setting up conv2/3x3_reduce
I0302 23:46:50.396584  8067 net.cpp:157] Top shape: 16 64 75 75 (5760000)
I0302 23:46:50.396586  8067 net.cpp:165] Memory required for data: 414745600
I0302 23:46:50.396591  8067 layer_factory.hpp:77] Creating layer conv2/relu_3x3_reduce
I0302 23:46:50.396595  8067 net.cpp:100] Creating Layer conv2/relu_3x3_reduce
I0302 23:46:50.396597  8067 net.cpp:434] conv2/relu_3x3_reduce <- conv2/3x3_reduce
I0302 23:46:50.396600  8067 net.cpp:395] conv2/relu_3x3_reduce -> conv2/3x3_reduce (in-place)
I0302 23:46:50.396699  8067 net.cpp:150] Setting up conv2/relu_3x3_reduce
I0302 23:46:50.396704  8067 net.cpp:157] Top shape: 16 64 75 75 (5760000)
I0302 23:46:50.396706  8067 net.cpp:165] Memory required for data: 437785600
I0302 23:46:50.396708  8067 layer_factory.hpp:77] Creating layer conv2/3x3
I0302 23:46:50.396713  8067 net.cpp:100] Creating Layer conv2/3x3
I0302 23:46:50.396716  8067 net.cpp:434] conv2/3x3 <- conv2/3x3_reduce
I0302 23:46:50.396719  8067 net.cpp:408] conv2/3x3 -> conv2/3x3
I0302 23:46:50.398180  8067 net.cpp:150] Setting up conv2/3x3
I0302 23:46:50.398190  8067 net.cpp:157] Top shape: 16 192 75 75 (17280000)
I0302 23:46:50.398191  8067 net.cpp:165] Memory required for data: 506905600
I0302 23:46:50.398197  8067 layer_factory.hpp:77] Creating layer conv2/relu_3x3
I0302 23:46:50.398201  8067 net.cpp:100] Creating Layer conv2/relu_3x3
I0302 23:46:50.398203  8067 net.cpp:434] conv2/relu_3x3 <- conv2/3x3
I0302 23:46:50.398206  8067 net.cpp:395] conv2/relu_3x3 -> conv2/3x3 (in-place)
I0302 23:46:50.398453  8067 net.cpp:150] Setting up conv2/relu_3x3
I0302 23:46:50.398461  8067 net.cpp:157] Top shape: 16 192 75 75 (17280000)
I0302 23:46:50.398463  8067 net.cpp:165] Memory required for data: 576025600
I0302 23:46:50.398465  8067 layer_factory.hpp:77] Creating layer pool2/3x3_s2
I0302 23:46:50.398469  8067 net.cpp:100] Creating Layer pool2/3x3_s2
I0302 23:46:50.398481  8067 net.cpp:434] pool2/3x3_s2 <- conv2/3x3
I0302 23:46:50.398484  8067 net.cpp:408] pool2/3x3_s2 -> pool2/3x3_s2
I0302 23:46:50.398509  8067 net.cpp:150] Setting up pool2/3x3_s2
I0302 23:46:50.398514  8067 net.cpp:157] Top shape: 16 192 37 37 (4205568)
I0302 23:46:50.398515  8067 net.cpp:165] Memory required for data: 592847872
I0302 23:46:50.398517  8067 layer_factory.hpp:77] Creating layer pool2/3x3_s2_pool2/3x3_s2_0_split
I0302 23:46:50.398520  8067 net.cpp:100] Creating Layer pool2/3x3_s2_pool2/3x3_s2_0_split
I0302 23:46:50.398524  8067 net.cpp:434] pool2/3x3_s2_pool2/3x3_s2_0_split <- pool2/3x3_s2
I0302 23:46:50.398525  8067 net.cpp:408] pool2/3x3_s2_pool2/3x3_s2_0_split -> pool2/3x3_s2_pool2/3x3_s2_0_split_0
I0302 23:46:50.398530  8067 net.cpp:408] pool2/3x3_s2_pool2/3x3_s2_0_split -> pool2/3x3_s2_pool2/3x3_s2_0_split_1
I0302 23:46:50.398532  8067 net.cpp:408] pool2/3x3_s2_pool2/3x3_s2_0_split -> pool2/3x3_s2_pool2/3x3_s2_0_split_2
I0302 23:46:50.398536  8067 net.cpp:408] pool2/3x3_s2_pool2/3x3_s2_0_split -> pool2/3x3_s2_pool2/3x3_s2_0_split_3
I0302 23:46:50.398568  8067 net.cpp:150] Setting up pool2/3x3_s2_pool2/3x3_s2_0_split
I0302 23:46:50.398572  8067 net.cpp:157] Top shape: 16 192 37 37 (4205568)
I0302 23:46:50.398574  8067 net.cpp:157] Top shape: 16 192 37 37 (4205568)
I0302 23:46:50.398577  8067 net.cpp:157] Top shape: 16 192 37 37 (4205568)
I0302 23:46:50.398579  8067 net.cpp:157] Top shape: 16 192 37 37 (4205568)
I0302 23:46:50.398581  8067 net.cpp:165] Memory required for data: 660136960
I0302 23:46:50.398583  8067 layer_factory.hpp:77] Creating layer inception_3a/1x1
I0302 23:46:50.398588  8067 net.cpp:100] Creating Layer inception_3a/1x1
I0302 23:46:50.398591  8067 net.cpp:434] inception_3a/1x1 <- pool2/3x3_s2_pool2/3x3_s2_0_split_0
I0302 23:46:50.398593  8067 net.cpp:408] inception_3a/1x1 -> inception_3a/1x1
I0302 23:46:50.399207  8067 net.cpp:150] Setting up inception_3a/1x1
I0302 23:46:50.399215  8067 net.cpp:157] Top shape: 16 64 37 37 (1401856)
I0302 23:46:50.399217  8067 net.cpp:165] Memory required for data: 665744384
I0302 23:46:50.399221  8067 layer_factory.hpp:77] Creating layer inception_3a/relu_1x1
I0302 23:46:50.399225  8067 net.cpp:100] Creating Layer inception_3a/relu_1x1
I0302 23:46:50.399227  8067 net.cpp:434] inception_3a/relu_1x1 <- inception_3a/1x1
I0302 23:46:50.399230  8067 net.cpp:395] inception_3a/relu_1x1 -> inception_3a/1x1 (in-place)
I0302 23:46:50.399328  8067 net.cpp:150] Setting up inception_3a/relu_1x1
I0302 23:46:50.399333  8067 net.cpp:157] Top shape: 16 64 37 37 (1401856)
I0302 23:46:50.399335  8067 net.cpp:165] Memory required for data: 671351808
I0302 23:46:50.399338  8067 layer_factory.hpp:77] Creating layer inception_3a/3x3_reduce
I0302 23:46:50.399343  8067 net.cpp:100] Creating Layer inception_3a/3x3_reduce
I0302 23:46:50.399344  8067 net.cpp:434] inception_3a/3x3_reduce <- pool2/3x3_s2_pool2/3x3_s2_0_split_1
I0302 23:46:50.399348  8067 net.cpp:408] inception_3a/3x3_reduce -> inception_3a/3x3_reduce
I0302 23:46:50.399986  8067 net.cpp:150] Setting up inception_3a/3x3_reduce
I0302 23:46:50.399994  8067 net.cpp:157] Top shape: 16 96 37 37 (2102784)
I0302 23:46:50.399996  8067 net.cpp:165] Memory required for data: 679762944
I0302 23:46:50.400002  8067 layer_factory.hpp:77] Creating layer inception_3a/relu_3x3_reduce
I0302 23:46:50.400007  8067 net.cpp:100] Creating Layer inception_3a/relu_3x3_reduce
I0302 23:46:50.400008  8067 net.cpp:434] inception_3a/relu_3x3_reduce <- inception_3a/3x3_reduce
I0302 23:46:50.400012  8067 net.cpp:395] inception_3a/relu_3x3_reduce -> inception_3a/3x3_reduce (in-place)
I0302 23:46:50.400106  8067 net.cpp:150] Setting up inception_3a/relu_3x3_reduce
I0302 23:46:50.400111  8067 net.cpp:157] Top shape: 16 96 37 37 (2102784)
I0302 23:46:50.400113  8067 net.cpp:165] Memory required for data: 688174080
I0302 23:46:50.400115  8067 layer_factory.hpp:77] Creating layer inception_3a/3x3
I0302 23:46:50.400120  8067 net.cpp:100] Creating Layer inception_3a/3x3
I0302 23:46:50.400122  8067 net.cpp:434] inception_3a/3x3 <- inception_3a/3x3_reduce
I0302 23:46:50.400132  8067 net.cpp:408] inception_3a/3x3 -> inception_3a/3x3
I0302 23:46:50.401182  8067 net.cpp:150] Setting up inception_3a/3x3
I0302 23:46:50.401190  8067 net.cpp:157] Top shape: 16 128 37 37 (2803712)
I0302 23:46:50.401192  8067 net.cpp:165] Memory required for data: 699388928
I0302 23:46:50.401196  8067 layer_factory.hpp:77] Creating layer inception_3a/relu_3x3
I0302 23:46:50.401201  8067 net.cpp:100] Creating Layer inception_3a/relu_3x3
I0302 23:46:50.401203  8067 net.cpp:434] inception_3a/relu_3x3 <- inception_3a/3x3
I0302 23:46:50.401206  8067 net.cpp:395] inception_3a/relu_3x3 -> inception_3a/3x3 (in-place)
I0302 23:46:50.401304  8067 net.cpp:150] Setting up inception_3a/relu_3x3
I0302 23:46:50.401309  8067 net.cpp:157] Top shape: 16 128 37 37 (2803712)
I0302 23:46:50.401311  8067 net.cpp:165] Memory required for data: 710603776
I0302 23:46:50.401314  8067 layer_factory.hpp:77] Creating layer inception_3a/5x5_reduce
I0302 23:46:50.401319  8067 net.cpp:100] Creating Layer inception_3a/5x5_reduce
I0302 23:46:50.401321  8067 net.cpp:434] inception_3a/5x5_reduce <- pool2/3x3_s2_pool2/3x3_s2_0_split_2
I0302 23:46:50.401324  8067 net.cpp:408] inception_3a/5x5_reduce -> inception_3a/5x5_reduce
I0302 23:46:50.401904  8067 net.cpp:150] Setting up inception_3a/5x5_reduce
I0302 23:46:50.401912  8067 net.cpp:157] Top shape: 16 16 37 37 (350464)
I0302 23:46:50.401914  8067 net.cpp:165] Memory required for data: 712005632
I0302 23:46:50.401918  8067 layer_factory.hpp:77] Creating layer inception_3a/relu_5x5_reduce
I0302 23:46:50.401922  8067 net.cpp:100] Creating Layer inception_3a/relu_5x5_reduce
I0302 23:46:50.401924  8067 net.cpp:434] inception_3a/relu_5x5_reduce <- inception_3a/5x5_reduce
I0302 23:46:50.401927  8067 net.cpp:395] inception_3a/relu_5x5_reduce -> inception_3a/5x5_reduce (in-place)
I0302 23:46:50.402021  8067 net.cpp:150] Setting up inception_3a/relu_5x5_reduce
I0302 23:46:50.402026  8067 net.cpp:157] Top shape: 16 16 37 37 (350464)
I0302 23:46:50.402029  8067 net.cpp:165] Memory required for data: 713407488
I0302 23:46:50.402030  8067 layer_factory.hpp:77] Creating layer inception_3a/5x5
I0302 23:46:50.402035  8067 net.cpp:100] Creating Layer inception_3a/5x5
I0302 23:46:50.402039  8067 net.cpp:434] inception_3a/5x5 <- inception_3a/5x5_reduce
I0302 23:46:50.402041  8067 net.cpp:408] inception_3a/5x5 -> inception_3a/5x5
I0302 23:46:50.402653  8067 net.cpp:150] Setting up inception_3a/5x5
I0302 23:46:50.402662  8067 net.cpp:157] Top shape: 16 32 37 37 (700928)
I0302 23:46:50.402663  8067 net.cpp:165] Memory required for data: 716211200
I0302 23:46:50.402667  8067 layer_factory.hpp:77] Creating layer inception_3a/relu_5x5
I0302 23:46:50.402671  8067 net.cpp:100] Creating Layer inception_3a/relu_5x5
I0302 23:46:50.402673  8067 net.cpp:434] inception_3a/relu_5x5 <- inception_3a/5x5
I0302 23:46:50.402676  8067 net.cpp:395] inception_3a/relu_5x5 -> inception_3a/5x5 (in-place)
I0302 23:46:50.402770  8067 net.cpp:150] Setting up inception_3a/relu_5x5
I0302 23:46:50.402776  8067 net.cpp:157] Top shape: 16 32 37 37 (700928)
I0302 23:46:50.402777  8067 net.cpp:165] Memory required for data: 719014912
I0302 23:46:50.402779  8067 layer_factory.hpp:77] Creating layer inception_3a/pool
I0302 23:46:50.402783  8067 net.cpp:100] Creating Layer inception_3a/pool
I0302 23:46:50.402786  8067 net.cpp:434] inception_3a/pool <- pool2/3x3_s2_pool2/3x3_s2_0_split_3
I0302 23:46:50.402788  8067 net.cpp:408] inception_3a/pool -> inception_3a/pool
I0302 23:46:50.402812  8067 net.cpp:150] Setting up inception_3a/pool
I0302 23:46:50.402815  8067 net.cpp:157] Top shape: 16 192 37 37 (4205568)
I0302 23:46:50.402817  8067 net.cpp:165] Memory required for data: 735837184
I0302 23:46:50.402819  8067 layer_factory.hpp:77] Creating layer inception_3a/pool_proj
I0302 23:46:50.402823  8067 net.cpp:100] Creating Layer inception_3a/pool_proj
I0302 23:46:50.402827  8067 net.cpp:434] inception_3a/pool_proj <- inception_3a/pool
I0302 23:46:50.402829  8067 net.cpp:408] inception_3a/pool_proj -> inception_3a/pool_proj
I0302 23:46:50.403424  8067 net.cpp:150] Setting up inception_3a/pool_proj
I0302 23:46:50.403430  8067 net.cpp:157] Top shape: 16 32 37 37 (700928)
I0302 23:46:50.403434  8067 net.cpp:165] Memory required for data: 738640896
I0302 23:46:50.403439  8067 layer_factory.hpp:77] Creating layer inception_3a/relu_pool_proj
I0302 23:46:50.403442  8067 net.cpp:100] Creating Layer inception_3a/relu_pool_proj
I0302 23:46:50.403445  8067 net.cpp:434] inception_3a/relu_pool_proj <- inception_3a/pool_proj
I0302 23:46:50.403448  8067 net.cpp:395] inception_3a/relu_pool_proj -> inception_3a/pool_proj (in-place)
I0302 23:46:50.403693  8067 net.cpp:150] Setting up inception_3a/relu_pool_proj
I0302 23:46:50.403700  8067 net.cpp:157] Top shape: 16 32 37 37 (700928)
I0302 23:46:50.403702  8067 net.cpp:165] Memory required for data: 741444608
I0302 23:46:50.403705  8067 layer_factory.hpp:77] Creating layer inception_3a/output
I0302 23:46:50.403708  8067 net.cpp:100] Creating Layer inception_3a/output
I0302 23:46:50.403712  8067 net.cpp:434] inception_3a/output <- inception_3a/1x1
I0302 23:46:50.403714  8067 net.cpp:434] inception_3a/output <- inception_3a/3x3
I0302 23:46:50.403717  8067 net.cpp:434] inception_3a/output <- inception_3a/5x5
I0302 23:46:50.403718  8067 net.cpp:434] inception_3a/output <- inception_3a/pool_proj
I0302 23:46:50.403722  8067 net.cpp:408] inception_3a/output -> inception_3a/output
I0302 23:46:50.403738  8067 net.cpp:150] Setting up inception_3a/output
I0302 23:46:50.403743  8067 net.cpp:157] Top shape: 16 256 37 37 (5607424)
I0302 23:46:50.403744  8067 net.cpp:165] Memory required for data: 763874304
I0302 23:46:50.403746  8067 layer_factory.hpp:77] Creating layer inception_3a/output_inception_3a/output_0_split
I0302 23:46:50.403749  8067 net.cpp:100] Creating Layer inception_3a/output_inception_3a/output_0_split
I0302 23:46:50.403751  8067 net.cpp:434] inception_3a/output_inception_3a/output_0_split <- inception_3a/output
I0302 23:46:50.403754  8067 net.cpp:408] inception_3a/output_inception_3a/output_0_split -> inception_3a/output_inception_3a/output_0_split_0
I0302 23:46:50.403759  8067 net.cpp:408] inception_3a/output_inception_3a/output_0_split -> inception_3a/output_inception_3a/output_0_split_1
I0302 23:46:50.403761  8067 net.cpp:408] inception_3a/output_inception_3a/output_0_split -> inception_3a/output_inception_3a/output_0_split_2
I0302 23:46:50.403764  8067 net.cpp:408] inception_3a/output_inception_3a/output_0_split -> inception_3a/output_inception_3a/output_0_split_3
I0302 23:46:50.403796  8067 net.cpp:150] Setting up inception_3a/output_inception_3a/output_0_split
I0302 23:46:50.403800  8067 net.cpp:157] Top shape: 16 256 37 37 (5607424)
I0302 23:46:50.403802  8067 net.cpp:157] Top shape: 16 256 37 37 (5607424)
I0302 23:46:50.403805  8067 net.cpp:157] Top shape: 16 256 37 37 (5607424)
I0302 23:46:50.403806  8067 net.cpp:157] Top shape: 16 256 37 37 (5607424)
I0302 23:46:50.403808  8067 net.cpp:165] Memory required for data: 853593088
I0302 23:46:50.403810  8067 layer_factory.hpp:77] Creating layer inception_3b/1x1
I0302 23:46:50.403815  8067 net.cpp:100] Creating Layer inception_3b/1x1
I0302 23:46:50.403817  8067 net.cpp:434] inception_3b/1x1 <- inception_3a/output_inception_3a/output_0_split_0
I0302 23:46:50.403820  8067 net.cpp:408] inception_3b/1x1 -> inception_3b/1x1
I0302 23:46:50.404484  8067 net.cpp:150] Setting up inception_3b/1x1
I0302 23:46:50.404492  8067 net.cpp:157] Top shape: 16 128 37 37 (2803712)
I0302 23:46:50.404495  8067 net.cpp:165] Memory required for data: 864807936
I0302 23:46:50.404498  8067 layer_factory.hpp:77] Creating layer inception_3b/relu_1x1
I0302 23:46:50.404501  8067 net.cpp:100] Creating Layer inception_3b/relu_1x1
I0302 23:46:50.404505  8067 net.cpp:434] inception_3b/relu_1x1 <- inception_3b/1x1
I0302 23:46:50.404507  8067 net.cpp:395] inception_3b/relu_1x1 -> inception_3b/1x1 (in-place)
I0302 23:46:50.404602  8067 net.cpp:150] Setting up inception_3b/relu_1x1
I0302 23:46:50.404606  8067 net.cpp:157] Top shape: 16 128 37 37 (2803712)
I0302 23:46:50.404615  8067 net.cpp:165] Memory required for data: 876022784
I0302 23:46:50.404618  8067 layer_factory.hpp:77] Creating layer inception_3b/3x3_reduce
I0302 23:46:50.404623  8067 net.cpp:100] Creating Layer inception_3b/3x3_reduce
I0302 23:46:50.404625  8067 net.cpp:434] inception_3b/3x3_reduce <- inception_3a/output_inception_3a/output_0_split_1
I0302 23:46:50.404629  8067 net.cpp:408] inception_3b/3x3_reduce -> inception_3b/3x3_reduce
I0302 23:46:50.405297  8067 net.cpp:150] Setting up inception_3b/3x3_reduce
I0302 23:46:50.405304  8067 net.cpp:157] Top shape: 16 128 37 37 (2803712)
I0302 23:46:50.405306  8067 net.cpp:165] Memory required for data: 887237632
I0302 23:46:50.405310  8067 layer_factory.hpp:77] Creating layer inception_3b/relu_3x3_reduce
I0302 23:46:50.405314  8067 net.cpp:100] Creating Layer inception_3b/relu_3x3_reduce
I0302 23:46:50.405316  8067 net.cpp:434] inception_3b/relu_3x3_reduce <- inception_3b/3x3_reduce
I0302 23:46:50.405319  8067 net.cpp:395] inception_3b/relu_3x3_reduce -> inception_3b/3x3_reduce (in-place)
I0302 23:46:50.405416  8067 net.cpp:150] Setting up inception_3b/relu_3x3_reduce
I0302 23:46:50.405421  8067 net.cpp:157] Top shape: 16 128 37 37 (2803712)
I0302 23:46:50.405422  8067 net.cpp:165] Memory required for data: 898452480
I0302 23:46:50.405424  8067 layer_factory.hpp:77] Creating layer inception_3b/3x3
I0302 23:46:50.405431  8067 net.cpp:100] Creating Layer inception_3b/3x3
I0302 23:46:50.405434  8067 net.cpp:434] inception_3b/3x3 <- inception_3b/3x3_reduce
I0302 23:46:50.405437  8067 net.cpp:408] inception_3b/3x3 -> inception_3b/3x3
I0302 23:46:50.406865  8067 net.cpp:150] Setting up inception_3b/3x3
I0302 23:46:50.406875  8067 net.cpp:157] Top shape: 16 192 37 37 (4205568)
I0302 23:46:50.406877  8067 net.cpp:165] Memory required for data: 915274752
I0302 23:46:50.406882  8067 layer_factory.hpp:77] Creating layer inception_3b/relu_3x3
I0302 23:46:50.406888  8067 net.cpp:100] Creating Layer inception_3b/relu_3x3
I0302 23:46:50.406893  8067 net.cpp:434] inception_3b/relu_3x3 <- inception_3b/3x3
I0302 23:46:50.406898  8067 net.cpp:395] inception_3b/relu_3x3 -> inception_3b/3x3 (in-place)
I0302 23:46:50.407002  8067 net.cpp:150] Setting up inception_3b/relu_3x3
I0302 23:46:50.407009  8067 net.cpp:157] Top shape: 16 192 37 37 (4205568)
I0302 23:46:50.407012  8067 net.cpp:165] Memory required for data: 932097024
I0302 23:46:50.407016  8067 layer_factory.hpp:77] Creating layer inception_3b/5x5_reduce
I0302 23:46:50.407027  8067 net.cpp:100] Creating Layer inception_3b/5x5_reduce
I0302 23:46:50.407030  8067 net.cpp:434] inception_3b/5x5_reduce <- inception_3a/output_inception_3a/output_0_split_2
I0302 23:46:50.407035  8067 net.cpp:408] inception_3b/5x5_reduce -> inception_3b/5x5_reduce
I0302 23:46:50.407728  8067 net.cpp:150] Setting up inception_3b/5x5_reduce
I0302 23:46:50.407739  8067 net.cpp:157] Top shape: 16 32 37 37 (700928)
I0302 23:46:50.407743  8067 net.cpp:165] Memory required for data: 934900736
I0302 23:46:50.407749  8067 layer_factory.hpp:77] Creating layer inception_3b/relu_5x5_reduce
I0302 23:46:50.407757  8067 net.cpp:100] Creating Layer inception_3b/relu_5x5_reduce
I0302 23:46:50.407762  8067 net.cpp:434] inception_3b/relu_5x5_reduce <- inception_3b/5x5_reduce
I0302 23:46:50.407766  8067 net.cpp:395] inception_3b/relu_5x5_reduce -> inception_3b/5x5_reduce (in-place)
I0302 23:46:50.407912  8067 net.cpp:150] Setting up inception_3b/relu_5x5_reduce
I0302 23:46:50.407922  8067 net.cpp:157] Top shape: 16 32 37 37 (700928)
I0302 23:46:50.407927  8067 net.cpp:165] Memory required for data: 937704448
I0302 23:46:50.407930  8067 layer_factory.hpp:77] Creating layer inception_3b/5x5
I0302 23:46:50.407938  8067 net.cpp:100] Creating Layer inception_3b/5x5
I0302 23:46:50.407943  8067 net.cpp:434] inception_3b/5x5 <- inception_3b/5x5_reduce
I0302 23:46:50.407951  8067 net.cpp:408] inception_3b/5x5 -> inception_3b/5x5
I0302 23:46:50.408977  8067 net.cpp:150] Setting up inception_3b/5x5
I0302 23:46:50.408985  8067 net.cpp:157] Top shape: 16 96 37 37 (2102784)
I0302 23:46:50.408987  8067 net.cpp:165] Memory required for data: 946115584
I0302 23:46:50.408999  8067 layer_factory.hpp:77] Creating layer inception_3b/relu_5x5
I0302 23:46:50.409003  8067 net.cpp:100] Creating Layer inception_3b/relu_5x5
I0302 23:46:50.409008  8067 net.cpp:434] inception_3b/relu_5x5 <- inception_3b/5x5
I0302 23:46:50.409010  8067 net.cpp:395] inception_3b/relu_5x5 -> inception_3b/5x5 (in-place)
I0302 23:46:50.409114  8067 net.cpp:150] Setting up inception_3b/relu_5x5
I0302 23:46:50.409119  8067 net.cpp:157] Top shape: 16 96 37 37 (2102784)
I0302 23:46:50.409121  8067 net.cpp:165] Memory required for data: 954526720
I0302 23:46:50.409123  8067 layer_factory.hpp:77] Creating layer inception_3b/pool
I0302 23:46:50.409127  8067 net.cpp:100] Creating Layer inception_3b/pool
I0302 23:46:50.409131  8067 net.cpp:434] inception_3b/pool <- inception_3a/output_inception_3a/output_0_split_3
I0302 23:46:50.409133  8067 net.cpp:408] inception_3b/pool -> inception_3b/pool
I0302 23:46:50.409159  8067 net.cpp:150] Setting up inception_3b/pool
I0302 23:46:50.409162  8067 net.cpp:157] Top shape: 16 256 37 37 (5607424)
I0302 23:46:50.409164  8067 net.cpp:165] Memory required for data: 976956416
I0302 23:46:50.409167  8067 layer_factory.hpp:77] Creating layer inception_3b/pool_proj
I0302 23:46:50.409171  8067 net.cpp:100] Creating Layer inception_3b/pool_proj
I0302 23:46:50.409173  8067 net.cpp:434] inception_3b/pool_proj <- inception_3b/pool
I0302 23:46:50.409176  8067 net.cpp:408] inception_3b/pool_proj -> inception_3b/pool_proj
I0302 23:46:50.409817  8067 net.cpp:150] Setting up inception_3b/pool_proj
I0302 23:46:50.409826  8067 net.cpp:157] Top shape: 16 64 37 37 (1401856)
I0302 23:46:50.409827  8067 net.cpp:165] Memory required for data: 982563840
I0302 23:46:50.409832  8067 layer_factory.hpp:77] Creating layer inception_3b/relu_pool_proj
I0302 23:46:50.409834  8067 net.cpp:100] Creating Layer inception_3b/relu_pool_proj
I0302 23:46:50.409837  8067 net.cpp:434] inception_3b/relu_pool_proj <- inception_3b/pool_proj
I0302 23:46:50.409840  8067 net.cpp:395] inception_3b/relu_pool_proj -> inception_3b/pool_proj (in-place)
I0302 23:46:50.410089  8067 net.cpp:150] Setting up inception_3b/relu_pool_proj
I0302 23:46:50.410096  8067 net.cpp:157] Top shape: 16 64 37 37 (1401856)
I0302 23:46:50.410099  8067 net.cpp:165] Memory required for data: 988171264
I0302 23:46:50.410101  8067 layer_factory.hpp:77] Creating layer inception_3b/output
I0302 23:46:50.410105  8067 net.cpp:100] Creating Layer inception_3b/output
I0302 23:46:50.410107  8067 net.cpp:434] inception_3b/output <- inception_3b/1x1
I0302 23:46:50.410110  8067 net.cpp:434] inception_3b/output <- inception_3b/3x3
I0302 23:46:50.410114  8067 net.cpp:434] inception_3b/output <- inception_3b/5x5
I0302 23:46:50.410115  8067 net.cpp:434] inception_3b/output <- inception_3b/pool_proj
I0302 23:46:50.410118  8067 net.cpp:408] inception_3b/output -> inception_3b/output
I0302 23:46:50.410137  8067 net.cpp:150] Setting up inception_3b/output
I0302 23:46:50.410141  8067 net.cpp:157] Top shape: 16 480 37 37 (10513920)
I0302 23:46:50.410143  8067 net.cpp:165] Memory required for data: 1030226944
I0302 23:46:50.410145  8067 layer_factory.hpp:77] Creating layer inception_3b/output_inception_3b/output_0_split
I0302 23:46:50.410150  8067 net.cpp:100] Creating Layer inception_3b/output_inception_3b/output_0_split
I0302 23:46:50.410151  8067 net.cpp:434] inception_3b/output_inception_3b/output_0_split <- inception_3b/output
I0302 23:46:50.410154  8067 net.cpp:408] inception_3b/output_inception_3b/output_0_split -> inception_3b/output_inception_3b/output_0_split_0
I0302 23:46:50.410157  8067 net.cpp:408] inception_3b/output_inception_3b/output_0_split -> inception_3b/output_inception_3b/output_0_split_1
I0302 23:46:50.410178  8067 net.cpp:150] Setting up inception_3b/output_inception_3b/output_0_split
I0302 23:46:50.410181  8067 net.cpp:157] Top shape: 16 480 37 37 (10513920)
I0302 23:46:50.410184  8067 net.cpp:157] Top shape: 16 480 37 37 (10513920)
I0302 23:46:50.410185  8067 net.cpp:165] Memory required for data: 1114338304
I0302 23:46:50.410193  8067 layer_factory.hpp:77] Creating layer pool3/3x3_s2
I0302 23:46:50.410197  8067 net.cpp:100] Creating Layer pool3/3x3_s2
I0302 23:46:50.410198  8067 net.cpp:434] pool3/3x3_s2 <- inception_3b/output_inception_3b/output_0_split_0
I0302 23:46:50.410202  8067 net.cpp:408] pool3/3x3_s2 -> pool3/3x3_s2
I0302 23:46:50.410223  8067 net.cpp:150] Setting up pool3/3x3_s2
I0302 23:46:50.410226  8067 net.cpp:157] Top shape: 16 480 18 18 (2488320)
I0302 23:46:50.410228  8067 net.cpp:165] Memory required for data: 1124291584
I0302 23:46:50.410230  8067 layer_factory.hpp:77] Creating layer pool3/3x3_s2_pool3/3x3_s2_0_split
I0302 23:46:50.410233  8067 net.cpp:100] Creating Layer pool3/3x3_s2_pool3/3x3_s2_0_split
I0302 23:46:50.410235  8067 net.cpp:434] pool3/3x3_s2_pool3/3x3_s2_0_split <- pool3/3x3_s2
I0302 23:46:50.410238  8067 net.cpp:408] pool3/3x3_s2_pool3/3x3_s2_0_split -> pool3/3x3_s2_pool3/3x3_s2_0_split_0
I0302 23:46:50.410241  8067 net.cpp:408] pool3/3x3_s2_pool3/3x3_s2_0_split -> pool3/3x3_s2_pool3/3x3_s2_0_split_1
I0302 23:46:50.410245  8067 net.cpp:408] pool3/3x3_s2_pool3/3x3_s2_0_split -> pool3/3x3_s2_pool3/3x3_s2_0_split_2
I0302 23:46:50.410249  8067 net.cpp:408] pool3/3x3_s2_pool3/3x3_s2_0_split -> pool3/3x3_s2_pool3/3x3_s2_0_split_3
I0302 23:46:50.410280  8067 net.cpp:150] Setting up pool3/3x3_s2_pool3/3x3_s2_0_split
I0302 23:46:50.410284  8067 net.cpp:157] Top shape: 16 480 18 18 (2488320)
I0302 23:46:50.410286  8067 net.cpp:157] Top shape: 16 480 18 18 (2488320)
I0302 23:46:50.410289  8067 net.cpp:157] Top shape: 16 480 18 18 (2488320)
I0302 23:46:50.410290  8067 net.cpp:157] Top shape: 16 480 18 18 (2488320)
I0302 23:46:50.410292  8067 net.cpp:165] Memory required for data: 1164104704
I0302 23:46:50.410295  8067 layer_factory.hpp:77] Creating layer inception_4a/1x1
I0302 23:46:50.410298  8067 net.cpp:100] Creating Layer inception_4a/1x1
I0302 23:46:50.410301  8067 net.cpp:434] inception_4a/1x1 <- pool3/3x3_s2_pool3/3x3_s2_0_split_0
I0302 23:46:50.410305  8067 net.cpp:408] inception_4a/1x1 -> inception_4a/1x1
I0302 23:46:50.412247  8067 net.cpp:150] Setting up inception_4a/1x1
I0302 23:46:50.412257  8067 net.cpp:157] Top shape: 16 192 18 18 (995328)
I0302 23:46:50.412259  8067 net.cpp:165] Memory required for data: 1168086016
I0302 23:46:50.412264  8067 layer_factory.hpp:77] Creating layer inception_4a/relu_1x1
I0302 23:46:50.412269  8067 net.cpp:100] Creating Layer inception_4a/relu_1x1
I0302 23:46:50.412272  8067 net.cpp:434] inception_4a/relu_1x1 <- inception_4a/1x1
I0302 23:46:50.412276  8067 net.cpp:395] inception_4a/relu_1x1 -> inception_4a/1x1 (in-place)
I0302 23:46:50.412390  8067 net.cpp:150] Setting up inception_4a/relu_1x1
I0302 23:46:50.412396  8067 net.cpp:157] Top shape: 16 192 18 18 (995328)
I0302 23:46:50.412398  8067 net.cpp:165] Memory required for data: 1172067328
I0302 23:46:50.412400  8067 layer_factory.hpp:77] Creating layer inception_4a/3x3_reduce
I0302 23:46:50.412406  8067 net.cpp:100] Creating Layer inception_4a/3x3_reduce
I0302 23:46:50.412410  8067 net.cpp:434] inception_4a/3x3_reduce <- pool3/3x3_s2_pool3/3x3_s2_0_split_1
I0302 23:46:50.412413  8067 net.cpp:408] inception_4a/3x3_reduce -> inception_4a/3x3_reduce
I0302 23:46:50.413208  8067 net.cpp:150] Setting up inception_4a/3x3_reduce
I0302 23:46:50.413216  8067 net.cpp:157] Top shape: 16 96 18 18 (497664)
I0302 23:46:50.413218  8067 net.cpp:165] Memory required for data: 1174057984
I0302 23:46:50.413226  8067 layer_factory.hpp:77] Creating layer inception_4a/relu_3x3_reduce
I0302 23:46:50.413230  8067 net.cpp:100] Creating Layer inception_4a/relu_3x3_reduce
I0302 23:46:50.413233  8067 net.cpp:434] inception_4a/relu_3x3_reduce <- inception_4a/3x3_reduce
I0302 23:46:50.413236  8067 net.cpp:395] inception_4a/relu_3x3_reduce -> inception_4a/3x3_reduce (in-place)
I0302 23:46:50.413343  8067 net.cpp:150] Setting up inception_4a/relu_3x3_reduce
I0302 23:46:50.413349  8067 net.cpp:157] Top shape: 16 96 18 18 (497664)
I0302 23:46:50.413352  8067 net.cpp:165] Memory required for data: 1176048640
I0302 23:46:50.413359  8067 layer_factory.hpp:77] Creating layer inception_4a/3x3
I0302 23:46:50.413365  8067 net.cpp:100] Creating Layer inception_4a/3x3
I0302 23:46:50.413368  8067 net.cpp:434] inception_4a/3x3 <- inception_4a/3x3_reduce
I0302 23:46:50.413372  8067 net.cpp:408] inception_4a/3x3 -> inception_4a/3x3
I0302 23:46:50.414726  8067 net.cpp:150] Setting up inception_4a/3x3
I0302 23:46:50.414734  8067 net.cpp:157] Top shape: 16 208 18 18 (1078272)
I0302 23:46:50.414736  8067 net.cpp:165] Memory required for data: 1180361728
I0302 23:46:50.414741  8067 layer_factory.hpp:77] Creating layer inception_4a/relu_3x3
I0302 23:46:50.414746  8067 net.cpp:100] Creating Layer inception_4a/relu_3x3
I0302 23:46:50.414748  8067 net.cpp:434] inception_4a/relu_3x3 <- inception_4a/3x3
I0302 23:46:50.414752  8067 net.cpp:395] inception_4a/relu_3x3 -> inception_4a/3x3 (in-place)
I0302 23:46:50.414865  8067 net.cpp:150] Setting up inception_4a/relu_3x3
I0302 23:46:50.414871  8067 net.cpp:157] Top shape: 16 208 18 18 (1078272)
I0302 23:46:50.414873  8067 net.cpp:165] Memory required for data: 1184674816
I0302 23:46:50.414875  8067 layer_factory.hpp:77] Creating layer inception_4a/5x5_reduce
I0302 23:46:50.414880  8067 net.cpp:100] Creating Layer inception_4a/5x5_reduce
I0302 23:46:50.414885  8067 net.cpp:434] inception_4a/5x5_reduce <- pool3/3x3_s2_pool3/3x3_s2_0_split_2
I0302 23:46:50.414888  8067 net.cpp:408] inception_4a/5x5_reduce -> inception_4a/5x5_reduce
I0302 23:46:50.415555  8067 net.cpp:150] Setting up inception_4a/5x5_reduce
I0302 23:46:50.415563  8067 net.cpp:157] Top shape: 16 16 18 18 (82944)
I0302 23:46:50.415565  8067 net.cpp:165] Memory required for data: 1185006592
I0302 23:46:50.415570  8067 layer_factory.hpp:77] Creating layer inception_4a/relu_5x5_reduce
I0302 23:46:50.415573  8067 net.cpp:100] Creating Layer inception_4a/relu_5x5_reduce
I0302 23:46:50.415577  8067 net.cpp:434] inception_4a/relu_5x5_reduce <- inception_4a/5x5_reduce
I0302 23:46:50.415581  8067 net.cpp:395] inception_4a/relu_5x5_reduce -> inception_4a/5x5_reduce (in-place)
I0302 23:46:50.415688  8067 net.cpp:150] Setting up inception_4a/relu_5x5_reduce
I0302 23:46:50.415693  8067 net.cpp:157] Top shape: 16 16 18 18 (82944)
I0302 23:46:50.415694  8067 net.cpp:165] Memory required for data: 1185338368
I0302 23:46:50.415696  8067 layer_factory.hpp:77] Creating layer inception_4a/5x5
I0302 23:46:50.415702  8067 net.cpp:100] Creating Layer inception_4a/5x5
I0302 23:46:50.415706  8067 net.cpp:434] inception_4a/5x5 <- inception_4a/5x5_reduce
I0302 23:46:50.415709  8067 net.cpp:408] inception_4a/5x5 -> inception_4a/5x5
I0302 23:46:50.416411  8067 net.cpp:150] Setting up inception_4a/5x5
I0302 23:46:50.416419  8067 net.cpp:157] Top shape: 16 48 18 18 (248832)
I0302 23:46:50.416421  8067 net.cpp:165] Memory required for data: 1186333696
I0302 23:46:50.416425  8067 layer_factory.hpp:77] Creating layer inception_4a/relu_5x5
I0302 23:46:50.416429  8067 net.cpp:100] Creating Layer inception_4a/relu_5x5
I0302 23:46:50.416434  8067 net.cpp:434] inception_4a/relu_5x5 <- inception_4a/5x5
I0302 23:46:50.416436  8067 net.cpp:395] inception_4a/relu_5x5 -> inception_4a/5x5 (in-place)
I0302 23:46:50.416543  8067 net.cpp:150] Setting up inception_4a/relu_5x5
I0302 23:46:50.416548  8067 net.cpp:157] Top shape: 16 48 18 18 (248832)
I0302 23:46:50.416549  8067 net.cpp:165] Memory required for data: 1187329024
I0302 23:46:50.416551  8067 layer_factory.hpp:77] Creating layer inception_4a/pool
I0302 23:46:50.416556  8067 net.cpp:100] Creating Layer inception_4a/pool
I0302 23:46:50.416560  8067 net.cpp:434] inception_4a/pool <- pool3/3x3_s2_pool3/3x3_s2_0_split_3
I0302 23:46:50.416564  8067 net.cpp:408] inception_4a/pool -> inception_4a/pool
I0302 23:46:50.416594  8067 net.cpp:150] Setting up inception_4a/pool
I0302 23:46:50.416599  8067 net.cpp:157] Top shape: 16 480 18 18 (2488320)
I0302 23:46:50.416602  8067 net.cpp:165] Memory required for data: 1197282304
I0302 23:46:50.416604  8067 layer_factory.hpp:77] Creating layer inception_4a/pool_proj
I0302 23:46:50.416610  8067 net.cpp:100] Creating Layer inception_4a/pool_proj
I0302 23:46:50.416621  8067 net.cpp:434] inception_4a/pool_proj <- inception_4a/pool
I0302 23:46:50.416626  8067 net.cpp:408] inception_4a/pool_proj -> inception_4a/pool_proj
I0302 23:46:50.417356  8067 net.cpp:150] Setting up inception_4a/pool_proj
I0302 23:46:50.417363  8067 net.cpp:157] Top shape: 16 64 18 18 (331776)
I0302 23:46:50.417366  8067 net.cpp:165] Memory required for data: 1198609408
I0302 23:46:50.417369  8067 layer_factory.hpp:77] Creating layer inception_4a/relu_pool_proj
I0302 23:46:50.417373  8067 net.cpp:100] Creating Layer inception_4a/relu_pool_proj
I0302 23:46:50.417376  8067 net.cpp:434] inception_4a/relu_pool_proj <- inception_4a/pool_proj
I0302 23:46:50.417378  8067 net.cpp:395] inception_4a/relu_pool_proj -> inception_4a/pool_proj (in-place)
I0302 23:46:50.417641  8067 net.cpp:150] Setting up inception_4a/relu_pool_proj
I0302 23:46:50.417649  8067 net.cpp:157] Top shape: 16 64 18 18 (331776)
I0302 23:46:50.417651  8067 net.cpp:165] Memory required for data: 1199936512
I0302 23:46:50.417654  8067 layer_factory.hpp:77] Creating layer inception_4a/output
I0302 23:46:50.417657  8067 net.cpp:100] Creating Layer inception_4a/output
I0302 23:46:50.417659  8067 net.cpp:434] inception_4a/output <- inception_4a/1x1
I0302 23:46:50.417662  8067 net.cpp:434] inception_4a/output <- inception_4a/3x3
I0302 23:46:50.417665  8067 net.cpp:434] inception_4a/output <- inception_4a/5x5
I0302 23:46:50.417667  8067 net.cpp:434] inception_4a/output <- inception_4a/pool_proj
I0302 23:46:50.417670  8067 net.cpp:408] inception_4a/output -> inception_4a/output
I0302 23:46:50.417690  8067 net.cpp:150] Setting up inception_4a/output
I0302 23:46:50.417693  8067 net.cpp:157] Top shape: 16 512 18 18 (2654208)
I0302 23:46:50.417695  8067 net.cpp:165] Memory required for data: 1210553344
I0302 23:46:50.417696  8067 layer_factory.hpp:77] Creating layer inception_4a/output_inception_4a/output_0_split
I0302 23:46:50.417701  8067 net.cpp:100] Creating Layer inception_4a/output_inception_4a/output_0_split
I0302 23:46:50.417703  8067 net.cpp:434] inception_4a/output_inception_4a/output_0_split <- inception_4a/output
I0302 23:46:50.417706  8067 net.cpp:408] inception_4a/output_inception_4a/output_0_split -> inception_4a/output_inception_4a/output_0_split_0
I0302 23:46:50.417711  8067 net.cpp:408] inception_4a/output_inception_4a/output_0_split -> inception_4a/output_inception_4a/output_0_split_1
I0302 23:46:50.417716  8067 net.cpp:408] inception_4a/output_inception_4a/output_0_split -> inception_4a/output_inception_4a/output_0_split_2
I0302 23:46:50.417718  8067 net.cpp:408] inception_4a/output_inception_4a/output_0_split -> inception_4a/output_inception_4a/output_0_split_3
I0302 23:46:50.417757  8067 net.cpp:150] Setting up inception_4a/output_inception_4a/output_0_split
I0302 23:46:50.417759  8067 net.cpp:157] Top shape: 16 512 18 18 (2654208)
I0302 23:46:50.417762  8067 net.cpp:157] Top shape: 16 512 18 18 (2654208)
I0302 23:46:50.417764  8067 net.cpp:157] Top shape: 16 512 18 18 (2654208)
I0302 23:46:50.417767  8067 net.cpp:157] Top shape: 16 512 18 18 (2654208)
I0302 23:46:50.417768  8067 net.cpp:165] Memory required for data: 1253020672
I0302 23:46:50.417769  8067 layer_factory.hpp:77] Creating layer inception_4b/1x1
I0302 23:46:50.417774  8067 net.cpp:100] Creating Layer inception_4b/1x1
I0302 23:46:50.417776  8067 net.cpp:434] inception_4b/1x1 <- inception_4a/output_inception_4a/output_0_split_0
I0302 23:46:50.417780  8067 net.cpp:408] inception_4b/1x1 -> inception_4b/1x1
I0302 23:46:50.418670  8067 net.cpp:150] Setting up inception_4b/1x1
I0302 23:46:50.418678  8067 net.cpp:157] Top shape: 16 160 18 18 (829440)
I0302 23:46:50.418679  8067 net.cpp:165] Memory required for data: 1256338432
I0302 23:46:50.418684  8067 layer_factory.hpp:77] Creating layer inception_4b/relu_1x1
I0302 23:46:50.418687  8067 net.cpp:100] Creating Layer inception_4b/relu_1x1
I0302 23:46:50.418690  8067 net.cpp:434] inception_4b/relu_1x1 <- inception_4b/1x1
I0302 23:46:50.418694  8067 net.cpp:395] inception_4b/relu_1x1 -> inception_4b/1x1 (in-place)
I0302 23:46:50.418804  8067 net.cpp:150] Setting up inception_4b/relu_1x1
I0302 23:46:50.418812  8067 net.cpp:157] Top shape: 16 160 18 18 (829440)
I0302 23:46:50.418813  8067 net.cpp:165] Memory required for data: 1259656192
I0302 23:46:50.418815  8067 layer_factory.hpp:77] Creating layer inception_4b/3x3_reduce
I0302 23:46:50.418820  8067 net.cpp:100] Creating Layer inception_4b/3x3_reduce
I0302 23:46:50.418823  8067 net.cpp:434] inception_4b/3x3_reduce <- inception_4a/output_inception_4a/output_0_split_1
I0302 23:46:50.418826  8067 net.cpp:408] inception_4b/3x3_reduce -> inception_4b/3x3_reduce
I0302 23:46:50.419656  8067 net.cpp:150] Setting up inception_4b/3x3_reduce
I0302 23:46:50.419663  8067 net.cpp:157] Top shape: 16 112 18 18 (580608)
I0302 23:46:50.419665  8067 net.cpp:165] Memory required for data: 1261978624
I0302 23:46:50.419669  8067 layer_factory.hpp:77] Creating layer inception_4b/relu_3x3_reduce
I0302 23:46:50.419673  8067 net.cpp:100] Creating Layer inception_4b/relu_3x3_reduce
I0302 23:46:50.419675  8067 net.cpp:434] inception_4b/relu_3x3_reduce <- inception_4b/3x3_reduce
I0302 23:46:50.419679  8067 net.cpp:395] inception_4b/relu_3x3_reduce -> inception_4b/3x3_reduce (in-place)
I0302 23:46:50.419786  8067 net.cpp:150] Setting up inception_4b/relu_3x3_reduce
I0302 23:46:50.419790  8067 net.cpp:157] Top shape: 16 112 18 18 (580608)
I0302 23:46:50.419792  8067 net.cpp:165] Memory required for data: 1264301056
I0302 23:46:50.419795  8067 layer_factory.hpp:77] Creating layer inception_4b/3x3
I0302 23:46:50.419800  8067 net.cpp:100] Creating Layer inception_4b/3x3
I0302 23:46:50.419802  8067 net.cpp:434] inception_4b/3x3 <- inception_4b/3x3_reduce
I0302 23:46:50.419806  8067 net.cpp:408] inception_4b/3x3 -> inception_4b/3x3
I0302 23:46:50.421767  8067 net.cpp:150] Setting up inception_4b/3x3
I0302 23:46:50.421773  8067 net.cpp:157] Top shape: 16 224 18 18 (1161216)
I0302 23:46:50.421777  8067 net.cpp:165] Memory required for data: 1268945920
I0302 23:46:50.421780  8067 layer_factory.hpp:77] Creating layer inception_4b/relu_3x3
I0302 23:46:50.421783  8067 net.cpp:100] Creating Layer inception_4b/relu_3x3
I0302 23:46:50.421787  8067 net.cpp:434] inception_4b/relu_3x3 <- inception_4b/3x3
I0302 23:46:50.421789  8067 net.cpp:395] inception_4b/relu_3x3 -> inception_4b/3x3 (in-place)
I0302 23:46:50.421901  8067 net.cpp:150] Setting up inception_4b/relu_3x3
I0302 23:46:50.421906  8067 net.cpp:157] Top shape: 16 224 18 18 (1161216)
I0302 23:46:50.421908  8067 net.cpp:165] Memory required for data: 1273590784
I0302 23:46:50.421910  8067 layer_factory.hpp:77] Creating layer inception_4b/5x5_reduce
I0302 23:46:50.421921  8067 net.cpp:100] Creating Layer inception_4b/5x5_reduce
I0302 23:46:50.421923  8067 net.cpp:434] inception_4b/5x5_reduce <- inception_4a/output_inception_4a/output_0_split_2
I0302 23:46:50.421927  8067 net.cpp:408] inception_4b/5x5_reduce -> inception_4b/5x5_reduce
I0302 23:46:50.422631  8067 net.cpp:150] Setting up inception_4b/5x5_reduce
I0302 23:46:50.422638  8067 net.cpp:157] Top shape: 16 24 18 18 (124416)
I0302 23:46:50.422646  8067 net.cpp:165] Memory required for data: 1274088448
I0302 23:46:50.422649  8067 layer_factory.hpp:77] Creating layer inception_4b/relu_5x5_reduce
I0302 23:46:50.422653  8067 net.cpp:100] Creating Layer inception_4b/relu_5x5_reduce
I0302 23:46:50.422655  8067 net.cpp:434] inception_4b/relu_5x5_reduce <- inception_4b/5x5_reduce
I0302 23:46:50.422659  8067 net.cpp:395] inception_4b/relu_5x5_reduce -> inception_4b/5x5_reduce (in-place)
I0302 23:46:50.422770  8067 net.cpp:150] Setting up inception_4b/relu_5x5_reduce
I0302 23:46:50.422775  8067 net.cpp:157] Top shape: 16 24 18 18 (124416)
I0302 23:46:50.422776  8067 net.cpp:165] Memory required for data: 1274586112
I0302 23:46:50.422778  8067 layer_factory.hpp:77] Creating layer inception_4b/5x5
I0302 23:46:50.422785  8067 net.cpp:100] Creating Layer inception_4b/5x5
I0302 23:46:50.422787  8067 net.cpp:434] inception_4b/5x5 <- inception_4b/5x5_reduce
I0302 23:46:50.422791  8067 net.cpp:408] inception_4b/5x5 -> inception_4b/5x5
I0302 23:46:50.423566  8067 net.cpp:150] Setting up inception_4b/5x5
I0302 23:46:50.423574  8067 net.cpp:157] Top shape: 16 64 18 18 (331776)
I0302 23:46:50.423578  8067 net.cpp:165] Memory required for data: 1275913216
I0302 23:46:50.423581  8067 layer_factory.hpp:77] Creating layer inception_4b/relu_5x5
I0302 23:46:50.423586  8067 net.cpp:100] Creating Layer inception_4b/relu_5x5
I0302 23:46:50.423590  8067 net.cpp:434] inception_4b/relu_5x5 <- inception_4b/5x5
I0302 23:46:50.423594  8067 net.cpp:395] inception_4b/relu_5x5 -> inception_4b/5x5 (in-place)
I0302 23:46:50.423702  8067 net.cpp:150] Setting up inception_4b/relu_5x5
I0302 23:46:50.423707  8067 net.cpp:157] Top shape: 16 64 18 18 (331776)
I0302 23:46:50.423708  8067 net.cpp:165] Memory required for data: 1277240320
I0302 23:46:50.423710  8067 layer_factory.hpp:77] Creating layer inception_4b/pool
I0302 23:46:50.423714  8067 net.cpp:100] Creating Layer inception_4b/pool
I0302 23:46:50.423717  8067 net.cpp:434] inception_4b/pool <- inception_4a/output_inception_4a/output_0_split_3
I0302 23:46:50.423722  8067 net.cpp:408] inception_4b/pool -> inception_4b/pool
I0302 23:46:50.423749  8067 net.cpp:150] Setting up inception_4b/pool
I0302 23:46:50.423753  8067 net.cpp:157] Top shape: 16 512 18 18 (2654208)
I0302 23:46:50.423755  8067 net.cpp:165] Memory required for data: 1287857152
I0302 23:46:50.423758  8067 layer_factory.hpp:77] Creating layer inception_4b/pool_proj
I0302 23:46:50.423763  8067 net.cpp:100] Creating Layer inception_4b/pool_proj
I0302 23:46:50.423766  8067 net.cpp:434] inception_4b/pool_proj <- inception_4b/pool
I0302 23:46:50.423769  8067 net.cpp:408] inception_4b/pool_proj -> inception_4b/pool_proj
I0302 23:46:50.424567  8067 net.cpp:150] Setting up inception_4b/pool_proj
I0302 23:46:50.424576  8067 net.cpp:157] Top shape: 16 64 18 18 (331776)
I0302 23:46:50.424578  8067 net.cpp:165] Memory required for data: 1289184256
I0302 23:46:50.424582  8067 layer_factory.hpp:77] Creating layer inception_4b/relu_pool_proj
I0302 23:46:50.424587  8067 net.cpp:100] Creating Layer inception_4b/relu_pool_proj
I0302 23:46:50.424588  8067 net.cpp:434] inception_4b/relu_pool_proj <- inception_4b/pool_proj
I0302 23:46:50.424592  8067 net.cpp:395] inception_4b/relu_pool_proj -> inception_4b/pool_proj (in-place)
I0302 23:46:50.424860  8067 net.cpp:150] Setting up inception_4b/relu_pool_proj
I0302 23:46:50.424866  8067 net.cpp:157] Top shape: 16 64 18 18 (331776)
I0302 23:46:50.424870  8067 net.cpp:165] Memory required for data: 1290511360
I0302 23:46:50.424871  8067 layer_factory.hpp:77] Creating layer inception_4b/output
I0302 23:46:50.424876  8067 net.cpp:100] Creating Layer inception_4b/output
I0302 23:46:50.424880  8067 net.cpp:434] inception_4b/output <- inception_4b/1x1
I0302 23:46:50.424882  8067 net.cpp:434] inception_4b/output <- inception_4b/3x3
I0302 23:46:50.424885  8067 net.cpp:434] inception_4b/output <- inception_4b/5x5
I0302 23:46:50.424887  8067 net.cpp:434] inception_4b/output <- inception_4b/pool_proj
I0302 23:46:50.424890  8067 net.cpp:408] inception_4b/output -> inception_4b/output
I0302 23:46:50.424913  8067 net.cpp:150] Setting up inception_4b/output
I0302 23:46:50.424917  8067 net.cpp:157] Top shape: 16 512 18 18 (2654208)
I0302 23:46:50.424919  8067 net.cpp:165] Memory required for data: 1301128192
I0302 23:46:50.424921  8067 layer_factory.hpp:77] Creating layer inception_4b/output_inception_4b/output_0_split
I0302 23:46:50.424924  8067 net.cpp:100] Creating Layer inception_4b/output_inception_4b/output_0_split
I0302 23:46:50.424927  8067 net.cpp:434] inception_4b/output_inception_4b/output_0_split <- inception_4b/output
I0302 23:46:50.424931  8067 net.cpp:408] inception_4b/output_inception_4b/output_0_split -> inception_4b/output_inception_4b/output_0_split_0
I0302 23:46:50.424934  8067 net.cpp:408] inception_4b/output_inception_4b/output_0_split -> inception_4b/output_inception_4b/output_0_split_1
I0302 23:46:50.424938  8067 net.cpp:408] inception_4b/output_inception_4b/output_0_split -> inception_4b/output_inception_4b/output_0_split_2
I0302 23:46:50.424948  8067 net.cpp:408] inception_4b/output_inception_4b/output_0_split -> inception_4b/output_inception_4b/output_0_split_3
I0302 23:46:50.424990  8067 net.cpp:150] Setting up inception_4b/output_inception_4b/output_0_split
I0302 23:46:50.424993  8067 net.cpp:157] Top shape: 16 512 18 18 (2654208)
I0302 23:46:50.424995  8067 net.cpp:157] Top shape: 16 512 18 18 (2654208)
I0302 23:46:50.424998  8067 net.cpp:157] Top shape: 16 512 18 18 (2654208)
I0302 23:46:50.425000  8067 net.cpp:157] Top shape: 16 512 18 18 (2654208)
I0302 23:46:50.425001  8067 net.cpp:165] Memory required for data: 1343595520
I0302 23:46:50.425004  8067 layer_factory.hpp:77] Creating layer inception_4c/1x1
I0302 23:46:50.425010  8067 net.cpp:100] Creating Layer inception_4c/1x1
I0302 23:46:50.425012  8067 net.cpp:434] inception_4c/1x1 <- inception_4b/output_inception_4b/output_0_split_0
I0302 23:46:50.425015  8067 net.cpp:408] inception_4c/1x1 -> inception_4c/1x1
I0302 23:46:50.425905  8067 net.cpp:150] Setting up inception_4c/1x1
I0302 23:46:50.425914  8067 net.cpp:157] Top shape: 16 128 18 18 (663552)
I0302 23:46:50.425915  8067 net.cpp:165] Memory required for data: 1346249728
I0302 23:46:50.425920  8067 layer_factory.hpp:77] Creating layer inception_4c/relu_1x1
I0302 23:46:50.425925  8067 net.cpp:100] Creating Layer inception_4c/relu_1x1
I0302 23:46:50.425927  8067 net.cpp:434] inception_4c/relu_1x1 <- inception_4c/1x1
I0302 23:46:50.425930  8067 net.cpp:395] inception_4c/relu_1x1 -> inception_4c/1x1 (in-place)
I0302 23:46:50.426040  8067 net.cpp:150] Setting up inception_4c/relu_1x1
I0302 23:46:50.426045  8067 net.cpp:157] Top shape: 16 128 18 18 (663552)
I0302 23:46:50.426048  8067 net.cpp:165] Memory required for data: 1348903936
I0302 23:46:50.426049  8067 layer_factory.hpp:77] Creating layer inception_4c/3x3_reduce
I0302 23:46:50.426055  8067 net.cpp:100] Creating Layer inception_4c/3x3_reduce
I0302 23:46:50.426059  8067 net.cpp:434] inception_4c/3x3_reduce <- inception_4b/output_inception_4b/output_0_split_1
I0302 23:46:50.426062  8067 net.cpp:408] inception_4c/3x3_reduce -> inception_4c/3x3_reduce
I0302 23:46:50.427100  8067 net.cpp:150] Setting up inception_4c/3x3_reduce
I0302 23:46:50.427109  8067 net.cpp:157] Top shape: 16 128 18 18 (663552)
I0302 23:46:50.427111  8067 net.cpp:165] Memory required for data: 1351558144
I0302 23:46:50.427115  8067 layer_factory.hpp:77] Creating layer inception_4c/relu_3x3_reduce
I0302 23:46:50.427119  8067 net.cpp:100] Creating Layer inception_4c/relu_3x3_reduce
I0302 23:46:50.427121  8067 net.cpp:434] inception_4c/relu_3x3_reduce <- inception_4c/3x3_reduce
I0302 23:46:50.427125  8067 net.cpp:395] inception_4c/relu_3x3_reduce -> inception_4c/3x3_reduce (in-place)
I0302 23:46:50.427239  8067 net.cpp:150] Setting up inception_4c/relu_3x3_reduce
I0302 23:46:50.427245  8067 net.cpp:157] Top shape: 16 128 18 18 (663552)
I0302 23:46:50.427248  8067 net.cpp:165] Memory required for data: 1354212352
I0302 23:46:50.427249  8067 layer_factory.hpp:77] Creating layer inception_4c/3x3
I0302 23:46:50.427255  8067 net.cpp:100] Creating Layer inception_4c/3x3
I0302 23:46:50.427258  8067 net.cpp:434] inception_4c/3x3 <- inception_4c/3x3_reduce
I0302 23:46:50.427263  8067 net.cpp:408] inception_4c/3x3 -> inception_4c/3x3
I0302 23:46:50.428993  8067 net.cpp:150] Setting up inception_4c/3x3
I0302 23:46:50.429002  8067 net.cpp:157] Top shape: 16 256 18 18 (1327104)
I0302 23:46:50.429003  8067 net.cpp:165] Memory required for data: 1359520768
I0302 23:46:50.429008  8067 layer_factory.hpp:77] Creating layer inception_4c/relu_3x3
I0302 23:46:50.429011  8067 net.cpp:100] Creating Layer inception_4c/relu_3x3
I0302 23:46:50.429014  8067 net.cpp:434] inception_4c/relu_3x3 <- inception_4c/3x3
I0302 23:46:50.429018  8067 net.cpp:395] inception_4c/relu_3x3 -> inception_4c/3x3 (in-place)
I0302 23:46:50.429128  8067 net.cpp:150] Setting up inception_4c/relu_3x3
I0302 23:46:50.429134  8067 net.cpp:157] Top shape: 16 256 18 18 (1327104)
I0302 23:46:50.429136  8067 net.cpp:165] Memory required for data: 1364829184
I0302 23:46:50.429147  8067 layer_factory.hpp:77] Creating layer inception_4c/5x5_reduce
I0302 23:46:50.429152  8067 net.cpp:100] Creating Layer inception_4c/5x5_reduce
I0302 23:46:50.429155  8067 net.cpp:434] inception_4c/5x5_reduce <- inception_4b/output_inception_4b/output_0_split_2
I0302 23:46:50.429159  8067 net.cpp:408] inception_4c/5x5_reduce -> inception_4c/5x5_reduce
I0302 23:46:50.429862  8067 net.cpp:150] Setting up inception_4c/5x5_reduce
I0302 23:46:50.429870  8067 net.cpp:157] Top shape: 16 24 18 18 (124416)
I0302 23:46:50.429872  8067 net.cpp:165] Memory required for data: 1365326848
I0302 23:46:50.429877  8067 layer_factory.hpp:77] Creating layer inception_4c/relu_5x5_reduce
I0302 23:46:50.429880  8067 net.cpp:100] Creating Layer inception_4c/relu_5x5_reduce
I0302 23:46:50.429883  8067 net.cpp:434] inception_4c/relu_5x5_reduce <- inception_4c/5x5_reduce
I0302 23:46:50.429886  8067 net.cpp:395] inception_4c/relu_5x5_reduce -> inception_4c/5x5_reduce (in-place)
I0302 23:46:50.429996  8067 net.cpp:150] Setting up inception_4c/relu_5x5_reduce
I0302 23:46:50.430001  8067 net.cpp:157] Top shape: 16 24 18 18 (124416)
I0302 23:46:50.430003  8067 net.cpp:165] Memory required for data: 1365824512
I0302 23:46:50.430006  8067 layer_factory.hpp:77] Creating layer inception_4c/5x5
I0302 23:46:50.430011  8067 net.cpp:100] Creating Layer inception_4c/5x5
I0302 23:46:50.430014  8067 net.cpp:434] inception_4c/5x5 <- inception_4c/5x5_reduce
I0302 23:46:50.430017  8067 net.cpp:408] inception_4c/5x5 -> inception_4c/5x5
I0302 23:46:50.430794  8067 net.cpp:150] Setting up inception_4c/5x5
I0302 23:46:50.430801  8067 net.cpp:157] Top shape: 16 64 18 18 (331776)
I0302 23:46:50.430804  8067 net.cpp:165] Memory required for data: 1367151616
I0302 23:46:50.430807  8067 layer_factory.hpp:77] Creating layer inception_4c/relu_5x5
I0302 23:46:50.430811  8067 net.cpp:100] Creating Layer inception_4c/relu_5x5
I0302 23:46:50.430814  8067 net.cpp:434] inception_4c/relu_5x5 <- inception_4c/5x5
I0302 23:46:50.430819  8067 net.cpp:395] inception_4c/relu_5x5 -> inception_4c/5x5 (in-place)
I0302 23:46:50.430925  8067 net.cpp:150] Setting up inception_4c/relu_5x5
I0302 23:46:50.430930  8067 net.cpp:157] Top shape: 16 64 18 18 (331776)
I0302 23:46:50.430932  8067 net.cpp:165] Memory required for data: 1368478720
I0302 23:46:50.430934  8067 layer_factory.hpp:77] Creating layer inception_4c/pool
I0302 23:46:50.430938  8067 net.cpp:100] Creating Layer inception_4c/pool
I0302 23:46:50.430941  8067 net.cpp:434] inception_4c/pool <- inception_4b/output_inception_4b/output_0_split_3
I0302 23:46:50.430944  8067 net.cpp:408] inception_4c/pool -> inception_4c/pool
I0302 23:46:50.430971  8067 net.cpp:150] Setting up inception_4c/pool
I0302 23:46:50.430975  8067 net.cpp:157] Top shape: 16 512 18 18 (2654208)
I0302 23:46:50.430976  8067 net.cpp:165] Memory required for data: 1379095552
I0302 23:46:50.430979  8067 layer_factory.hpp:77] Creating layer inception_4c/pool_proj
I0302 23:46:50.430984  8067 net.cpp:100] Creating Layer inception_4c/pool_proj
I0302 23:46:50.430986  8067 net.cpp:434] inception_4c/pool_proj <- inception_4c/pool
I0302 23:46:50.430990  8067 net.cpp:408] inception_4c/pool_proj -> inception_4c/pool_proj
I0302 23:46:50.432201  8067 net.cpp:150] Setting up inception_4c/pool_proj
I0302 23:46:50.432209  8067 net.cpp:157] Top shape: 16 64 18 18 (331776)
I0302 23:46:50.432210  8067 net.cpp:165] Memory required for data: 1380422656
I0302 23:46:50.432221  8067 layer_factory.hpp:77] Creating layer inception_4c/relu_pool_proj
I0302 23:46:50.432225  8067 net.cpp:100] Creating Layer inception_4c/relu_pool_proj
I0302 23:46:50.432229  8067 net.cpp:434] inception_4c/relu_pool_proj <- inception_4c/pool_proj
I0302 23:46:50.432231  8067 net.cpp:395] inception_4c/relu_pool_proj -> inception_4c/pool_proj (in-place)
I0302 23:46:50.432497  8067 net.cpp:150] Setting up inception_4c/relu_pool_proj
I0302 23:46:50.432503  8067 net.cpp:157] Top shape: 16 64 18 18 (331776)
I0302 23:46:50.432505  8067 net.cpp:165] Memory required for data: 1381749760
I0302 23:46:50.432513  8067 layer_factory.hpp:77] Creating layer inception_4c/output
I0302 23:46:50.432518  8067 net.cpp:100] Creating Layer inception_4c/output
I0302 23:46:50.432521  8067 net.cpp:434] inception_4c/output <- inception_4c/1x1
I0302 23:46:50.432524  8067 net.cpp:434] inception_4c/output <- inception_4c/3x3
I0302 23:46:50.432526  8067 net.cpp:434] inception_4c/output <- inception_4c/5x5
I0302 23:46:50.432528  8067 net.cpp:434] inception_4c/output <- inception_4c/pool_proj
I0302 23:46:50.432531  8067 net.cpp:408] inception_4c/output -> inception_4c/output
I0302 23:46:50.432551  8067 net.cpp:150] Setting up inception_4c/output
I0302 23:46:50.432555  8067 net.cpp:157] Top shape: 16 512 18 18 (2654208)
I0302 23:46:50.432556  8067 net.cpp:165] Memory required for data: 1392366592
I0302 23:46:50.432559  8067 layer_factory.hpp:77] Creating layer inception_4c/output_inception_4c/output_0_split
I0302 23:46:50.432562  8067 net.cpp:100] Creating Layer inception_4c/output_inception_4c/output_0_split
I0302 23:46:50.432564  8067 net.cpp:434] inception_4c/output_inception_4c/output_0_split <- inception_4c/output
I0302 23:46:50.432567  8067 net.cpp:408] inception_4c/output_inception_4c/output_0_split -> inception_4c/output_inception_4c/output_0_split_0
I0302 23:46:50.432571  8067 net.cpp:408] inception_4c/output_inception_4c/output_0_split -> inception_4c/output_inception_4c/output_0_split_1
I0302 23:46:50.432574  8067 net.cpp:408] inception_4c/output_inception_4c/output_0_split -> inception_4c/output_inception_4c/output_0_split_2
I0302 23:46:50.432579  8067 net.cpp:408] inception_4c/output_inception_4c/output_0_split -> inception_4c/output_inception_4c/output_0_split_3
I0302 23:46:50.432616  8067 net.cpp:150] Setting up inception_4c/output_inception_4c/output_0_split
I0302 23:46:50.432621  8067 net.cpp:157] Top shape: 16 512 18 18 (2654208)
I0302 23:46:50.432623  8067 net.cpp:157] Top shape: 16 512 18 18 (2654208)
I0302 23:46:50.432626  8067 net.cpp:157] Top shape: 16 512 18 18 (2654208)
I0302 23:46:50.432627  8067 net.cpp:157] Top shape: 16 512 18 18 (2654208)
I0302 23:46:50.432628  8067 net.cpp:165] Memory required for data: 1434833920
I0302 23:46:50.432631  8067 layer_factory.hpp:77] Creating layer inception_4d/1x1
I0302 23:46:50.432636  8067 net.cpp:100] Creating Layer inception_4d/1x1
I0302 23:46:50.432638  8067 net.cpp:434] inception_4d/1x1 <- inception_4c/output_inception_4c/output_0_split_0
I0302 23:46:50.432641  8067 net.cpp:408] inception_4d/1x1 -> inception_4d/1x1
I0302 23:46:50.433472  8067 net.cpp:150] Setting up inception_4d/1x1
I0302 23:46:50.433480  8067 net.cpp:157] Top shape: 16 112 18 18 (580608)
I0302 23:46:50.433481  8067 net.cpp:165] Memory required for data: 1437156352
I0302 23:46:50.433485  8067 layer_factory.hpp:77] Creating layer inception_4d/relu_1x1
I0302 23:46:50.433490  8067 net.cpp:100] Creating Layer inception_4d/relu_1x1
I0302 23:46:50.433491  8067 net.cpp:434] inception_4d/relu_1x1 <- inception_4d/1x1
I0302 23:46:50.433495  8067 net.cpp:395] inception_4d/relu_1x1 -> inception_4d/1x1 (in-place)
I0302 23:46:50.433604  8067 net.cpp:150] Setting up inception_4d/relu_1x1
I0302 23:46:50.433609  8067 net.cpp:157] Top shape: 16 112 18 18 (580608)
I0302 23:46:50.433609  8067 net.cpp:165] Memory required for data: 1439478784
I0302 23:46:50.433611  8067 layer_factory.hpp:77] Creating layer inception_4d/3x3_reduce
I0302 23:46:50.433616  8067 net.cpp:100] Creating Layer inception_4d/3x3_reduce
I0302 23:46:50.433619  8067 net.cpp:434] inception_4d/3x3_reduce <- inception_4c/output_inception_4c/output_0_split_1
I0302 23:46:50.433624  8067 net.cpp:408] inception_4d/3x3_reduce -> inception_4d/3x3_reduce
I0302 23:46:50.434515  8067 net.cpp:150] Setting up inception_4d/3x3_reduce
I0302 23:46:50.434523  8067 net.cpp:157] Top shape: 16 144 18 18 (746496)
I0302 23:46:50.434525  8067 net.cpp:165] Memory required for data: 1442464768
I0302 23:46:50.434530  8067 layer_factory.hpp:77] Creating layer inception_4d/relu_3x3_reduce
I0302 23:46:50.434535  8067 net.cpp:100] Creating Layer inception_4d/relu_3x3_reduce
I0302 23:46:50.434545  8067 net.cpp:434] inception_4d/relu_3x3_reduce <- inception_4d/3x3_reduce
I0302 23:46:50.434548  8067 net.cpp:395] inception_4d/relu_3x3_reduce -> inception_4d/3x3_reduce (in-place)
I0302 23:46:50.434666  8067 net.cpp:150] Setting up inception_4d/relu_3x3_reduce
I0302 23:46:50.434671  8067 net.cpp:157] Top shape: 16 144 18 18 (746496)
I0302 23:46:50.434674  8067 net.cpp:165] Memory required for data: 1445450752
I0302 23:46:50.434675  8067 layer_factory.hpp:77] Creating layer inception_4d/3x3
I0302 23:46:50.434680  8067 net.cpp:100] Creating Layer inception_4d/3x3
I0302 23:46:50.434684  8067 net.cpp:434] inception_4d/3x3 <- inception_4d/3x3_reduce
I0302 23:46:50.434687  8067 net.cpp:408] inception_4d/3x3 -> inception_4d/3x3
I0302 23:46:50.437119  8067 net.cpp:150] Setting up inception_4d/3x3
I0302 23:46:50.437126  8067 net.cpp:157] Top shape: 16 288 18 18 (1492992)
I0302 23:46:50.437129  8067 net.cpp:165] Memory required for data: 1451422720
I0302 23:46:50.437134  8067 layer_factory.hpp:77] Creating layer inception_4d/relu_3x3
I0302 23:46:50.437137  8067 net.cpp:100] Creating Layer inception_4d/relu_3x3
I0302 23:46:50.437140  8067 net.cpp:434] inception_4d/relu_3x3 <- inception_4d/3x3
I0302 23:46:50.437144  8067 net.cpp:395] inception_4d/relu_3x3 -> inception_4d/3x3 (in-place)
I0302 23:46:50.437258  8067 net.cpp:150] Setting up inception_4d/relu_3x3
I0302 23:46:50.437265  8067 net.cpp:157] Top shape: 16 288 18 18 (1492992)
I0302 23:46:50.437268  8067 net.cpp:165] Memory required for data: 1457394688
I0302 23:46:50.437269  8067 layer_factory.hpp:77] Creating layer inception_4d/5x5_reduce
I0302 23:46:50.437278  8067 net.cpp:100] Creating Layer inception_4d/5x5_reduce
I0302 23:46:50.437280  8067 net.cpp:434] inception_4d/5x5_reduce <- inception_4c/output_inception_4c/output_0_split_2
I0302 23:46:50.437284  8067 net.cpp:408] inception_4d/5x5_reduce -> inception_4d/5x5_reduce
I0302 23:46:50.441435  8067 net.cpp:150] Setting up inception_4d/5x5_reduce
I0302 23:46:50.441442  8067 net.cpp:157] Top shape: 16 32 18 18 (165888)
I0302 23:46:50.441444  8067 net.cpp:165] Memory required for data: 1458058240
I0302 23:46:50.441448  8067 layer_factory.hpp:77] Creating layer inception_4d/relu_5x5_reduce
I0302 23:46:50.441452  8067 net.cpp:100] Creating Layer inception_4d/relu_5x5_reduce
I0302 23:46:50.441455  8067 net.cpp:434] inception_4d/relu_5x5_reduce <- inception_4d/5x5_reduce
I0302 23:46:50.441458  8067 net.cpp:395] inception_4d/relu_5x5_reduce -> inception_4d/5x5_reduce (in-place)
I0302 23:46:50.441566  8067 net.cpp:150] Setting up inception_4d/relu_5x5_reduce
I0302 23:46:50.441572  8067 net.cpp:157] Top shape: 16 32 18 18 (165888)
I0302 23:46:50.441573  8067 net.cpp:165] Memory required for data: 1458721792
I0302 23:46:50.441576  8067 layer_factory.hpp:77] Creating layer inception_4d/5x5
I0302 23:46:50.441581  8067 net.cpp:100] Creating Layer inception_4d/5x5
I0302 23:46:50.441584  8067 net.cpp:434] inception_4d/5x5 <- inception_4d/5x5_reduce
I0302 23:46:50.441587  8067 net.cpp:408] inception_4d/5x5 -> inception_4d/5x5
I0302 23:46:50.442411  8067 net.cpp:150] Setting up inception_4d/5x5
I0302 23:46:50.442418  8067 net.cpp:157] Top shape: 16 64 18 18 (331776)
I0302 23:46:50.442420  8067 net.cpp:165] Memory required for data: 1460048896
I0302 23:46:50.442425  8067 layer_factory.hpp:77] Creating layer inception_4d/relu_5x5
I0302 23:46:50.442428  8067 net.cpp:100] Creating Layer inception_4d/relu_5x5
I0302 23:46:50.442430  8067 net.cpp:434] inception_4d/relu_5x5 <- inception_4d/5x5
I0302 23:46:50.442433  8067 net.cpp:395] inception_4d/relu_5x5 -> inception_4d/5x5 (in-place)
I0302 23:46:50.442541  8067 net.cpp:150] Setting up inception_4d/relu_5x5
I0302 23:46:50.442545  8067 net.cpp:157] Top shape: 16 64 18 18 (331776)
I0302 23:46:50.442548  8067 net.cpp:165] Memory required for data: 1461376000
I0302 23:46:50.442549  8067 layer_factory.hpp:77] Creating layer inception_4d/pool
I0302 23:46:50.442553  8067 net.cpp:100] Creating Layer inception_4d/pool
I0302 23:46:50.442555  8067 net.cpp:434] inception_4d/pool <- inception_4c/output_inception_4c/output_0_split_3
I0302 23:46:50.442567  8067 net.cpp:408] inception_4d/pool -> inception_4d/pool
I0302 23:46:50.442596  8067 net.cpp:150] Setting up inception_4d/pool
I0302 23:46:50.442600  8067 net.cpp:157] Top shape: 16 512 18 18 (2654208)
I0302 23:46:50.442602  8067 net.cpp:165] Memory required for data: 1471992832
I0302 23:46:50.442603  8067 layer_factory.hpp:77] Creating layer inception_4d/pool_proj
I0302 23:46:50.442610  8067 net.cpp:100] Creating Layer inception_4d/pool_proj
I0302 23:46:50.442612  8067 net.cpp:434] inception_4d/pool_proj <- inception_4d/pool
I0302 23:46:50.442616  8067 net.cpp:408] inception_4d/pool_proj -> inception_4d/pool_proj
I0302 23:46:50.443387  8067 net.cpp:150] Setting up inception_4d/pool_proj
I0302 23:46:50.443394  8067 net.cpp:157] Top shape: 16 64 18 18 (331776)
I0302 23:46:50.443397  8067 net.cpp:165] Memory required for data: 1473319936
I0302 23:46:50.443400  8067 layer_factory.hpp:77] Creating layer inception_4d/relu_pool_proj
I0302 23:46:50.443404  8067 net.cpp:100] Creating Layer inception_4d/relu_pool_proj
I0302 23:46:50.443408  8067 net.cpp:434] inception_4d/relu_pool_proj <- inception_4d/pool_proj
I0302 23:46:50.443410  8067 net.cpp:395] inception_4d/relu_pool_proj -> inception_4d/pool_proj (in-place)
I0302 23:46:50.443681  8067 net.cpp:150] Setting up inception_4d/relu_pool_proj
I0302 23:46:50.443688  8067 net.cpp:157] Top shape: 16 64 18 18 (331776)
I0302 23:46:50.443691  8067 net.cpp:165] Memory required for data: 1474647040
I0302 23:46:50.443692  8067 layer_factory.hpp:77] Creating layer inception_4d/output
I0302 23:46:50.443696  8067 net.cpp:100] Creating Layer inception_4d/output
I0302 23:46:50.443698  8067 net.cpp:434] inception_4d/output <- inception_4d/1x1
I0302 23:46:50.443702  8067 net.cpp:434] inception_4d/output <- inception_4d/3x3
I0302 23:46:50.443704  8067 net.cpp:434] inception_4d/output <- inception_4d/5x5
I0302 23:46:50.443707  8067 net.cpp:434] inception_4d/output <- inception_4d/pool_proj
I0302 23:46:50.443709  8067 net.cpp:408] inception_4d/output -> inception_4d/output
I0302 23:46:50.443729  8067 net.cpp:150] Setting up inception_4d/output
I0302 23:46:50.443733  8067 net.cpp:157] Top shape: 16 528 18 18 (2737152)
I0302 23:46:50.443735  8067 net.cpp:165] Memory required for data: 1485595648
I0302 23:46:50.443737  8067 layer_factory.hpp:77] Creating layer inception_4d/output_inception_4d/output_0_split
I0302 23:46:50.443740  8067 net.cpp:100] Creating Layer inception_4d/output_inception_4d/output_0_split
I0302 23:46:50.443742  8067 net.cpp:434] inception_4d/output_inception_4d/output_0_split <- inception_4d/output
I0302 23:46:50.443747  8067 net.cpp:408] inception_4d/output_inception_4d/output_0_split -> inception_4d/output_inception_4d/output_0_split_0
I0302 23:46:50.443749  8067 net.cpp:408] inception_4d/output_inception_4d/output_0_split -> inception_4d/output_inception_4d/output_0_split_1
I0302 23:46:50.443753  8067 net.cpp:408] inception_4d/output_inception_4d/output_0_split -> inception_4d/output_inception_4d/output_0_split_2
I0302 23:46:50.443756  8067 net.cpp:408] inception_4d/output_inception_4d/output_0_split -> inception_4d/output_inception_4d/output_0_split_3
I0302 23:46:50.443797  8067 net.cpp:150] Setting up inception_4d/output_inception_4d/output_0_split
I0302 23:46:50.443800  8067 net.cpp:157] Top shape: 16 528 18 18 (2737152)
I0302 23:46:50.443802  8067 net.cpp:157] Top shape: 16 528 18 18 (2737152)
I0302 23:46:50.443804  8067 net.cpp:157] Top shape: 16 528 18 18 (2737152)
I0302 23:46:50.443806  8067 net.cpp:157] Top shape: 16 528 18 18 (2737152)
I0302 23:46:50.443809  8067 net.cpp:165] Memory required for data: 1529390080
I0302 23:46:50.443810  8067 layer_factory.hpp:77] Creating layer inception_4e/1x1
I0302 23:46:50.443816  8067 net.cpp:100] Creating Layer inception_4e/1x1
I0302 23:46:50.443819  8067 net.cpp:434] inception_4e/1x1 <- inception_4d/output_inception_4d/output_0_split_0
I0302 23:46:50.443822  8067 net.cpp:408] inception_4e/1x1 -> inception_4e/1x1
I0302 23:46:50.444900  8067 net.cpp:150] Setting up inception_4e/1x1
I0302 23:46:50.444913  8067 net.cpp:157] Top shape: 16 256 18 18 (1327104)
I0302 23:46:50.444916  8067 net.cpp:165] Memory required for data: 1534698496
I0302 23:46:50.444919  8067 layer_factory.hpp:77] Creating layer inception_4e/relu_1x1
I0302 23:46:50.444923  8067 net.cpp:100] Creating Layer inception_4e/relu_1x1
I0302 23:46:50.444926  8067 net.cpp:434] inception_4e/relu_1x1 <- inception_4e/1x1
I0302 23:46:50.444931  8067 net.cpp:395] inception_4e/relu_1x1 -> inception_4e/1x1 (in-place)
I0302 23:46:50.445049  8067 net.cpp:150] Setting up inception_4e/relu_1x1
I0302 23:46:50.445053  8067 net.cpp:157] Top shape: 16 256 18 18 (1327104)
I0302 23:46:50.445055  8067 net.cpp:165] Memory required for data: 1540006912
I0302 23:46:50.445056  8067 layer_factory.hpp:77] Creating layer inception_4e/3x3_reduce
I0302 23:46:50.445062  8067 net.cpp:100] Creating Layer inception_4e/3x3_reduce
I0302 23:46:50.445065  8067 net.cpp:434] inception_4e/3x3_reduce <- inception_4d/output_inception_4d/output_0_split_1
I0302 23:46:50.445070  8067 net.cpp:408] inception_4e/3x3_reduce -> inception_4e/3x3_reduce
I0302 23:46:50.446012  8067 net.cpp:150] Setting up inception_4e/3x3_reduce
I0302 23:46:50.446019  8067 net.cpp:157] Top shape: 16 160 18 18 (829440)
I0302 23:46:50.446022  8067 net.cpp:165] Memory required for data: 1543324672
I0302 23:46:50.446025  8067 layer_factory.hpp:77] Creating layer inception_4e/relu_3x3_reduce
I0302 23:46:50.446030  8067 net.cpp:100] Creating Layer inception_4e/relu_3x3_reduce
I0302 23:46:50.446033  8067 net.cpp:434] inception_4e/relu_3x3_reduce <- inception_4e/3x3_reduce
I0302 23:46:50.446036  8067 net.cpp:395] inception_4e/relu_3x3_reduce -> inception_4e/3x3_reduce (in-place)
I0302 23:46:50.446147  8067 net.cpp:150] Setting up inception_4e/relu_3x3_reduce
I0302 23:46:50.446152  8067 net.cpp:157] Top shape: 16 160 18 18 (829440)
I0302 23:46:50.446153  8067 net.cpp:165] Memory required for data: 1546642432
I0302 23:46:50.446156  8067 layer_factory.hpp:77] Creating layer inception_4e/3x3
I0302 23:46:50.446161  8067 net.cpp:100] Creating Layer inception_4e/3x3
I0302 23:46:50.446163  8067 net.cpp:434] inception_4e/3x3 <- inception_4e/3x3_reduce
I0302 23:46:50.446168  8067 net.cpp:408] inception_4e/3x3 -> inception_4e/3x3
I0302 23:46:50.448983  8067 net.cpp:150] Setting up inception_4e/3x3
I0302 23:46:50.448993  8067 net.cpp:157] Top shape: 16 320 18 18 (1658880)
I0302 23:46:50.448995  8067 net.cpp:165] Memory required for data: 1553277952
I0302 23:46:50.449000  8067 layer_factory.hpp:77] Creating layer inception_4e/relu_3x3
I0302 23:46:50.449005  8067 net.cpp:100] Creating Layer inception_4e/relu_3x3
I0302 23:46:50.449008  8067 net.cpp:434] inception_4e/relu_3x3 <- inception_4e/3x3
I0302 23:46:50.449012  8067 net.cpp:395] inception_4e/relu_3x3 -> inception_4e/3x3 (in-place)
I0302 23:46:50.449128  8067 net.cpp:150] Setting up inception_4e/relu_3x3
I0302 23:46:50.449133  8067 net.cpp:157] Top shape: 16 320 18 18 (1658880)
I0302 23:46:50.449136  8067 net.cpp:165] Memory required for data: 1559913472
I0302 23:46:50.449136  8067 layer_factory.hpp:77] Creating layer inception_4e/5x5_reduce
I0302 23:46:50.449143  8067 net.cpp:100] Creating Layer inception_4e/5x5_reduce
I0302 23:46:50.449146  8067 net.cpp:434] inception_4e/5x5_reduce <- inception_4d/output_inception_4d/output_0_split_2
I0302 23:46:50.449151  8067 net.cpp:408] inception_4e/5x5_reduce -> inception_4e/5x5_reduce
I0302 23:46:50.449918  8067 net.cpp:150] Setting up inception_4e/5x5_reduce
I0302 23:46:50.449924  8067 net.cpp:157] Top shape: 16 32 18 18 (165888)
I0302 23:46:50.449928  8067 net.cpp:165] Memory required for data: 1560577024
I0302 23:46:50.449931  8067 layer_factory.hpp:77] Creating layer inception_4e/relu_5x5_reduce
I0302 23:46:50.449935  8067 net.cpp:100] Creating Layer inception_4e/relu_5x5_reduce
I0302 23:46:50.449939  8067 net.cpp:434] inception_4e/relu_5x5_reduce <- inception_4e/5x5_reduce
I0302 23:46:50.449942  8067 net.cpp:395] inception_4e/relu_5x5_reduce -> inception_4e/5x5_reduce (in-place)
I0302 23:46:50.450052  8067 net.cpp:150] Setting up inception_4e/relu_5x5_reduce
I0302 23:46:50.450067  8067 net.cpp:157] Top shape: 16 32 18 18 (165888)
I0302 23:46:50.450068  8067 net.cpp:165] Memory required for data: 1561240576
I0302 23:46:50.450070  8067 layer_factory.hpp:77] Creating layer inception_4e/5x5
I0302 23:46:50.450076  8067 net.cpp:100] Creating Layer inception_4e/5x5
I0302 23:46:50.450079  8067 net.cpp:434] inception_4e/5x5 <- inception_4e/5x5_reduce
I0302 23:46:50.450083  8067 net.cpp:408] inception_4e/5x5 -> inception_4e/5x5
I0302 23:46:50.451545  8067 net.cpp:150] Setting up inception_4e/5x5
I0302 23:46:50.451551  8067 net.cpp:157] Top shape: 16 128 18 18 (663552)
I0302 23:46:50.451555  8067 net.cpp:165] Memory required for data: 1563894784
I0302 23:46:50.451558  8067 layer_factory.hpp:77] Creating layer inception_4e/relu_5x5
I0302 23:46:50.451562  8067 net.cpp:100] Creating Layer inception_4e/relu_5x5
I0302 23:46:50.451565  8067 net.cpp:434] inception_4e/relu_5x5 <- inception_4e/5x5
I0302 23:46:50.451568  8067 net.cpp:395] inception_4e/relu_5x5 -> inception_4e/5x5 (in-place)
I0302 23:46:50.451678  8067 net.cpp:150] Setting up inception_4e/relu_5x5
I0302 23:46:50.451683  8067 net.cpp:157] Top shape: 16 128 18 18 (663552)
I0302 23:46:50.451685  8067 net.cpp:165] Memory required for data: 1566548992
I0302 23:46:50.451688  8067 layer_factory.hpp:77] Creating layer inception_4e/pool
I0302 23:46:50.451692  8067 net.cpp:100] Creating Layer inception_4e/pool
I0302 23:46:50.451694  8067 net.cpp:434] inception_4e/pool <- inception_4d/output_inception_4d/output_0_split_3
I0302 23:46:50.451697  8067 net.cpp:408] inception_4e/pool -> inception_4e/pool
I0302 23:46:50.451728  8067 net.cpp:150] Setting up inception_4e/pool
I0302 23:46:50.451731  8067 net.cpp:157] Top shape: 16 528 18 18 (2737152)
I0302 23:46:50.451733  8067 net.cpp:165] Memory required for data: 1577497600
I0302 23:46:50.451735  8067 layer_factory.hpp:77] Creating layer inception_4e/pool_proj
I0302 23:46:50.451740  8067 net.cpp:100] Creating Layer inception_4e/pool_proj
I0302 23:46:50.451742  8067 net.cpp:434] inception_4e/pool_proj <- inception_4e/pool
I0302 23:46:50.451747  8067 net.cpp:408] inception_4e/pool_proj -> inception_4e/pool_proj
I0302 23:46:50.452787  8067 net.cpp:150] Setting up inception_4e/pool_proj
I0302 23:46:50.452793  8067 net.cpp:157] Top shape: 16 128 18 18 (663552)
I0302 23:46:50.452795  8067 net.cpp:165] Memory required for data: 1580151808
I0302 23:46:50.452800  8067 layer_factory.hpp:77] Creating layer inception_4e/relu_pool_proj
I0302 23:46:50.452803  8067 net.cpp:100] Creating Layer inception_4e/relu_pool_proj
I0302 23:46:50.452806  8067 net.cpp:434] inception_4e/relu_pool_proj <- inception_4e/pool_proj
I0302 23:46:50.452811  8067 net.cpp:395] inception_4e/relu_pool_proj -> inception_4e/pool_proj (in-place)
I0302 23:46:50.453094  8067 net.cpp:150] Setting up inception_4e/relu_pool_proj
I0302 23:46:50.453100  8067 net.cpp:157] Top shape: 16 128 18 18 (663552)
I0302 23:46:50.453102  8067 net.cpp:165] Memory required for data: 1582806016
I0302 23:46:50.453104  8067 layer_factory.hpp:77] Creating layer inception_4e/output
I0302 23:46:50.453109  8067 net.cpp:100] Creating Layer inception_4e/output
I0302 23:46:50.453111  8067 net.cpp:434] inception_4e/output <- inception_4e/1x1
I0302 23:46:50.453115  8067 net.cpp:434] inception_4e/output <- inception_4e/3x3
I0302 23:46:50.453117  8067 net.cpp:434] inception_4e/output <- inception_4e/5x5
I0302 23:46:50.453119  8067 net.cpp:434] inception_4e/output <- inception_4e/pool_proj
I0302 23:46:50.453122  8067 net.cpp:408] inception_4e/output -> inception_4e/output
I0302 23:46:50.453143  8067 net.cpp:150] Setting up inception_4e/output
I0302 23:46:50.453146  8067 net.cpp:157] Top shape: 16 832 18 18 (4313088)
I0302 23:46:50.453148  8067 net.cpp:165] Memory required for data: 1600058368
I0302 23:46:50.453150  8067 layer_factory.hpp:77] Creating layer inception_4e/output_inception_4e/output_0_split
I0302 23:46:50.453153  8067 net.cpp:100] Creating Layer inception_4e/output_inception_4e/output_0_split
I0302 23:46:50.453155  8067 net.cpp:434] inception_4e/output_inception_4e/output_0_split <- inception_4e/output
I0302 23:46:50.453166  8067 net.cpp:408] inception_4e/output_inception_4e/output_0_split -> inception_4e/output_inception_4e/output_0_split_0
I0302 23:46:50.453171  8067 net.cpp:408] inception_4e/output_inception_4e/output_0_split -> inception_4e/output_inception_4e/output_0_split_1
I0302 23:46:50.453174  8067 net.cpp:408] inception_4e/output_inception_4e/output_0_split -> inception_4e/output_inception_4e/output_0_split_2
I0302 23:46:50.453177  8067 net.cpp:408] inception_4e/output_inception_4e/output_0_split -> inception_4e/output_inception_4e/output_0_split_3
I0302 23:46:50.453219  8067 net.cpp:150] Setting up inception_4e/output_inception_4e/output_0_split
I0302 23:46:50.453223  8067 net.cpp:157] Top shape: 16 832 18 18 (4313088)
I0302 23:46:50.453225  8067 net.cpp:157] Top shape: 16 832 18 18 (4313088)
I0302 23:46:50.453227  8067 net.cpp:157] Top shape: 16 832 18 18 (4313088)
I0302 23:46:50.453229  8067 net.cpp:157] Top shape: 16 832 18 18 (4313088)
I0302 23:46:50.453232  8067 net.cpp:165] Memory required for data: 1669067776
I0302 23:46:50.453233  8067 layer_factory.hpp:77] Creating layer conv6_1
I0302 23:46:50.453238  8067 net.cpp:100] Creating Layer conv6_1
I0302 23:46:50.453241  8067 net.cpp:434] conv6_1 <- inception_4e/output_inception_4e/output_0_split_0
I0302 23:46:50.453245  8067 net.cpp:408] conv6_1 -> conv6_1
I0302 23:46:50.454581  8067 net.cpp:150] Setting up conv6_1
I0302 23:46:50.454588  8067 net.cpp:157] Top shape: 16 256 18 18 (1327104)
I0302 23:46:50.454591  8067 net.cpp:165] Memory required for data: 1674376192
I0302 23:46:50.454594  8067 layer_factory.hpp:77] Creating layer conv6_1_relu
I0302 23:46:50.454598  8067 net.cpp:100] Creating Layer conv6_1_relu
I0302 23:46:50.454602  8067 net.cpp:434] conv6_1_relu <- conv6_1
I0302 23:46:50.454604  8067 net.cpp:395] conv6_1_relu -> conv6_1 (in-place)
I0302 23:46:50.454718  8067 net.cpp:150] Setting up conv6_1_relu
I0302 23:46:50.454723  8067 net.cpp:157] Top shape: 16 256 18 18 (1327104)
I0302 23:46:50.454726  8067 net.cpp:165] Memory required for data: 1679684608
I0302 23:46:50.454728  8067 layer_factory.hpp:77] Creating layer conv6_2
I0302 23:46:50.454735  8067 net.cpp:100] Creating Layer conv6_2
I0302 23:46:50.454736  8067 net.cpp:434] conv6_2 <- conv6_1
I0302 23:46:50.454740  8067 net.cpp:408] conv6_2 -> conv6_2
I0302 23:46:50.460173  8067 net.cpp:150] Setting up conv6_2
I0302 23:46:50.460186  8067 net.cpp:157] Top shape: 16 512 9 9 (663552)
I0302 23:46:50.460187  8067 net.cpp:165] Memory required for data: 1682338816
I0302 23:46:50.460193  8067 layer_factory.hpp:77] Creating layer conv6_2_relu
I0302 23:46:50.460199  8067 net.cpp:100] Creating Layer conv6_2_relu
I0302 23:46:50.460202  8067 net.cpp:434] conv6_2_relu <- conv6_2
I0302 23:46:50.460206  8067 net.cpp:395] conv6_2_relu -> conv6_2 (in-place)
I0302 23:46:50.460319  8067 net.cpp:150] Setting up conv6_2_relu
I0302 23:46:50.460324  8067 net.cpp:157] Top shape: 16 512 9 9 (663552)
I0302 23:46:50.460325  8067 net.cpp:165] Memory required for data: 1684993024
I0302 23:46:50.460327  8067 layer_factory.hpp:77] Creating layer conv6_2_conv6_2_relu_0_split
I0302 23:46:50.460331  8067 net.cpp:100] Creating Layer conv6_2_conv6_2_relu_0_split
I0302 23:46:50.460333  8067 net.cpp:434] conv6_2_conv6_2_relu_0_split <- conv6_2
I0302 23:46:50.460336  8067 net.cpp:408] conv6_2_conv6_2_relu_0_split -> conv6_2_conv6_2_relu_0_split_0
I0302 23:46:50.460340  8067 net.cpp:408] conv6_2_conv6_2_relu_0_split -> conv6_2_conv6_2_relu_0_split_1
I0302 23:46:50.460345  8067 net.cpp:408] conv6_2_conv6_2_relu_0_split -> conv6_2_conv6_2_relu_0_split_2
I0302 23:46:50.460348  8067 net.cpp:408] conv6_2_conv6_2_relu_0_split -> conv6_2_conv6_2_relu_0_split_3
I0302 23:46:50.460397  8067 net.cpp:150] Setting up conv6_2_conv6_2_relu_0_split
I0302 23:46:50.460399  8067 net.cpp:157] Top shape: 16 512 9 9 (663552)
I0302 23:46:50.460402  8067 net.cpp:157] Top shape: 16 512 9 9 (663552)
I0302 23:46:50.460403  8067 net.cpp:157] Top shape: 16 512 9 9 (663552)
I0302 23:46:50.460415  8067 net.cpp:157] Top shape: 16 512 9 9 (663552)
I0302 23:46:50.460417  8067 net.cpp:165] Memory required for data: 1695609856
I0302 23:46:50.460418  8067 layer_factory.hpp:77] Creating layer conv7_1
I0302 23:46:50.460425  8067 net.cpp:100] Creating Layer conv7_1
I0302 23:46:50.460429  8067 net.cpp:434] conv7_1 <- conv6_2_conv6_2_relu_0_split_0
I0302 23:46:50.460433  8067 net.cpp:408] conv7_1 -> conv7_1
I0302 23:46:50.461318  8067 net.cpp:150] Setting up conv7_1
I0302 23:46:50.461325  8067 net.cpp:157] Top shape: 16 128 9 9 (165888)
I0302 23:46:50.461328  8067 net.cpp:165] Memory required for data: 1696273408
I0302 23:46:50.461331  8067 layer_factory.hpp:77] Creating layer conv7_1_relu
I0302 23:46:50.461336  8067 net.cpp:100] Creating Layer conv7_1_relu
I0302 23:46:50.461338  8067 net.cpp:434] conv7_1_relu <- conv7_1
I0302 23:46:50.461341  8067 net.cpp:395] conv7_1_relu -> conv7_1 (in-place)
I0302 23:46:50.461448  8067 net.cpp:150] Setting up conv7_1_relu
I0302 23:46:50.461453  8067 net.cpp:157] Top shape: 16 128 9 9 (165888)
I0302 23:46:50.461454  8067 net.cpp:165] Memory required for data: 1696936960
I0302 23:46:50.461457  8067 layer_factory.hpp:77] Creating layer conv7_2
I0302 23:46:50.461463  8067 net.cpp:100] Creating Layer conv7_2
I0302 23:46:50.461465  8067 net.cpp:434] conv7_2 <- conv7_1
I0302 23:46:50.461469  8067 net.cpp:408] conv7_2 -> conv7_2
I0302 23:46:50.463495  8067 net.cpp:150] Setting up conv7_2
I0302 23:46:50.463501  8067 net.cpp:157] Top shape: 16 256 5 5 (102400)
I0302 23:46:50.463503  8067 net.cpp:165] Memory required for data: 1697346560
I0302 23:46:50.463507  8067 layer_factory.hpp:77] Creating layer conv7_2_relu
I0302 23:46:50.463510  8067 net.cpp:100] Creating Layer conv7_2_relu
I0302 23:46:50.463513  8067 net.cpp:434] conv7_2_relu <- conv7_2
I0302 23:46:50.463516  8067 net.cpp:395] conv7_2_relu -> conv7_2 (in-place)
I0302 23:46:50.463627  8067 net.cpp:150] Setting up conv7_2_relu
I0302 23:46:50.463632  8067 net.cpp:157] Top shape: 16 256 5 5 (102400)
I0302 23:46:50.463634  8067 net.cpp:165] Memory required for data: 1697756160
I0302 23:46:50.463636  8067 layer_factory.hpp:77] Creating layer conv7_2_conv7_2_relu_0_split
I0302 23:46:50.463639  8067 net.cpp:100] Creating Layer conv7_2_conv7_2_relu_0_split
I0302 23:46:50.463641  8067 net.cpp:434] conv7_2_conv7_2_relu_0_split <- conv7_2
I0302 23:46:50.463645  8067 net.cpp:408] conv7_2_conv7_2_relu_0_split -> conv7_2_conv7_2_relu_0_split_0
I0302 23:46:50.463649  8067 net.cpp:408] conv7_2_conv7_2_relu_0_split -> conv7_2_conv7_2_relu_0_split_1
I0302 23:46:50.463654  8067 net.cpp:408] conv7_2_conv7_2_relu_0_split -> conv7_2_conv7_2_relu_0_split_2
I0302 23:46:50.463656  8067 net.cpp:408] conv7_2_conv7_2_relu_0_split -> conv7_2_conv7_2_relu_0_split_3
I0302 23:46:50.463702  8067 net.cpp:150] Setting up conv7_2_conv7_2_relu_0_split
I0302 23:46:50.463706  8067 net.cpp:157] Top shape: 16 256 5 5 (102400)
I0302 23:46:50.463707  8067 net.cpp:157] Top shape: 16 256 5 5 (102400)
I0302 23:46:50.463709  8067 net.cpp:157] Top shape: 16 256 5 5 (102400)
I0302 23:46:50.463711  8067 net.cpp:157] Top shape: 16 256 5 5 (102400)
I0302 23:46:50.463713  8067 net.cpp:165] Memory required for data: 1699394560
I0302 23:46:50.463716  8067 layer_factory.hpp:77] Creating layer conv8_1
I0302 23:46:50.463731  8067 net.cpp:100] Creating Layer conv8_1
I0302 23:46:50.463732  8067 net.cpp:434] conv8_1 <- conv7_2_conv7_2_relu_0_split_0
I0302 23:46:50.463737  8067 net.cpp:408] conv8_1 -> conv8_1
I0302 23:46:50.464512  8067 net.cpp:150] Setting up conv8_1
I0302 23:46:50.464519  8067 net.cpp:157] Top shape: 16 128 5 5 (51200)
I0302 23:46:50.464520  8067 net.cpp:165] Memory required for data: 1699599360
I0302 23:46:50.464524  8067 layer_factory.hpp:77] Creating layer conv8_1_relu
I0302 23:46:50.464529  8067 net.cpp:100] Creating Layer conv8_1_relu
I0302 23:46:50.464531  8067 net.cpp:434] conv8_1_relu <- conv8_1
I0302 23:46:50.464534  8067 net.cpp:395] conv8_1_relu -> conv8_1 (in-place)
I0302 23:46:50.464643  8067 net.cpp:150] Setting up conv8_1_relu
I0302 23:46:50.464653  8067 net.cpp:157] Top shape: 16 128 5 5 (51200)
I0302 23:46:50.464655  8067 net.cpp:165] Memory required for data: 1699804160
I0302 23:46:50.464658  8067 layer_factory.hpp:77] Creating layer conv8_2
I0302 23:46:50.464663  8067 net.cpp:100] Creating Layer conv8_2
I0302 23:46:50.464666  8067 net.cpp:434] conv8_2 <- conv8_1
I0302 23:46:50.464669  8067 net.cpp:408] conv8_2 -> conv8_2
I0302 23:46:50.466687  8067 net.cpp:150] Setting up conv8_2
I0302 23:46:50.466696  8067 net.cpp:157] Top shape: 16 256 3 3 (36864)
I0302 23:46:50.466697  8067 net.cpp:165] Memory required for data: 1699951616
I0302 23:46:50.466701  8067 layer_factory.hpp:77] Creating layer conv8_2_relu
I0302 23:46:50.466706  8067 net.cpp:100] Creating Layer conv8_2_relu
I0302 23:46:50.466707  8067 net.cpp:434] conv8_2_relu <- conv8_2
I0302 23:46:50.466711  8067 net.cpp:395] conv8_2_relu -> conv8_2 (in-place)
I0302 23:46:50.466991  8067 net.cpp:150] Setting up conv8_2_relu
I0302 23:46:50.466998  8067 net.cpp:157] Top shape: 16 256 3 3 (36864)
I0302 23:46:50.467000  8067 net.cpp:165] Memory required for data: 1700099072
I0302 23:46:50.467002  8067 layer_factory.hpp:77] Creating layer conv8_2_conv8_2_relu_0_split
I0302 23:46:50.467007  8067 net.cpp:100] Creating Layer conv8_2_conv8_2_relu_0_split
I0302 23:46:50.467010  8067 net.cpp:434] conv8_2_conv8_2_relu_0_split <- conv8_2
I0302 23:46:50.467012  8067 net.cpp:408] conv8_2_conv8_2_relu_0_split -> conv8_2_conv8_2_relu_0_split_0
I0302 23:46:50.467017  8067 net.cpp:408] conv8_2_conv8_2_relu_0_split -> conv8_2_conv8_2_relu_0_split_1
I0302 23:46:50.467020  8067 net.cpp:408] conv8_2_conv8_2_relu_0_split -> conv8_2_conv8_2_relu_0_split_2
I0302 23:46:50.467023  8067 net.cpp:408] conv8_2_conv8_2_relu_0_split -> conv8_2_conv8_2_relu_0_split_3
I0302 23:46:50.467072  8067 net.cpp:150] Setting up conv8_2_conv8_2_relu_0_split
I0302 23:46:50.467077  8067 net.cpp:157] Top shape: 16 256 3 3 (36864)
I0302 23:46:50.467078  8067 net.cpp:157] Top shape: 16 256 3 3 (36864)
I0302 23:46:50.467082  8067 net.cpp:157] Top shape: 16 256 3 3 (36864)
I0302 23:46:50.467083  8067 net.cpp:157] Top shape: 16 256 3 3 (36864)
I0302 23:46:50.467084  8067 net.cpp:165] Memory required for data: 1700688896
I0302 23:46:50.467087  8067 layer_factory.hpp:77] Creating layer pool6
I0302 23:46:50.467090  8067 net.cpp:100] Creating Layer pool6
I0302 23:46:50.467092  8067 net.cpp:434] pool6 <- conv8_2_conv8_2_relu_0_split_0
I0302 23:46:50.467097  8067 net.cpp:408] pool6 -> pool6
I0302 23:46:50.467221  8067 net.cpp:150] Setting up pool6
I0302 23:46:50.467226  8067 net.cpp:157] Top shape: 16 256 1 1 (4096)
I0302 23:46:50.467227  8067 net.cpp:165] Memory required for data: 1700705280
I0302 23:46:50.467229  8067 layer_factory.hpp:77] Creating layer pool6_pool6_0_split
I0302 23:46:50.467233  8067 net.cpp:100] Creating Layer pool6_pool6_0_split
I0302 23:46:50.467236  8067 net.cpp:434] pool6_pool6_0_split <- pool6
I0302 23:46:50.467238  8067 net.cpp:408] pool6_pool6_0_split -> pool6_pool6_0_split_0
I0302 23:46:50.467242  8067 net.cpp:408] pool6_pool6_0_split -> pool6_pool6_0_split_1
I0302 23:46:50.467244  8067 net.cpp:408] pool6_pool6_0_split -> pool6_pool6_0_split_2
I0302 23:46:50.467277  8067 net.cpp:150] Setting up pool6_pool6_0_split
I0302 23:46:50.467280  8067 net.cpp:157] Top shape: 16 256 1 1 (4096)
I0302 23:46:50.467283  8067 net.cpp:157] Top shape: 16 256 1 1 (4096)
I0302 23:46:50.467284  8067 net.cpp:157] Top shape: 16 256 1 1 (4096)
I0302 23:46:50.467285  8067 net.cpp:165] Memory required for data: 1700754432
I0302 23:46:50.467288  8067 layer_factory.hpp:77] Creating layer conv4_3_norm
I0302 23:46:50.467291  8067 net.cpp:100] Creating Layer conv4_3_norm
I0302 23:46:50.467294  8067 net.cpp:434] conv4_3_norm <- inception_3b/output_inception_3b/output_0_split_1
I0302 23:46:50.467298  8067 net.cpp:408] conv4_3_norm -> conv4_3_norm
I0302 23:46:50.467453  8067 net.cpp:150] Setting up conv4_3_norm
I0302 23:46:50.467456  8067 net.cpp:157] Top shape: 16 480 37 37 (10513920)
I0302 23:46:50.467458  8067 net.cpp:165] Memory required for data: 1742810112
I0302 23:46:50.467470  8067 layer_factory.hpp:77] Creating layer conv4_3_norm_conv4_3_norm_0_split
I0302 23:46:50.467474  8067 net.cpp:100] Creating Layer conv4_3_norm_conv4_3_norm_0_split
I0302 23:46:50.467476  8067 net.cpp:434] conv4_3_norm_conv4_3_norm_0_split <- conv4_3_norm
I0302 23:46:50.467480  8067 net.cpp:408] conv4_3_norm_conv4_3_norm_0_split -> conv4_3_norm_conv4_3_norm_0_split_0
I0302 23:46:50.467492  8067 net.cpp:408] conv4_3_norm_conv4_3_norm_0_split -> conv4_3_norm_conv4_3_norm_0_split_1
I0302 23:46:50.467496  8067 net.cpp:408] conv4_3_norm_conv4_3_norm_0_split -> conv4_3_norm_conv4_3_norm_0_split_2
I0302 23:46:50.467530  8067 net.cpp:150] Setting up conv4_3_norm_conv4_3_norm_0_split
I0302 23:46:50.467535  8067 net.cpp:157] Top shape: 16 480 37 37 (10513920)
I0302 23:46:50.467536  8067 net.cpp:157] Top shape: 16 480 37 37 (10513920)
I0302 23:46:50.467540  8067 net.cpp:157] Top shape: 16 480 37 37 (10513920)
I0302 23:46:50.467540  8067 net.cpp:165] Memory required for data: 1868977152
I0302 23:46:50.467542  8067 layer_factory.hpp:77] Creating layer conv4_3_norm_mbox_loc
I0302 23:46:50.467548  8067 net.cpp:100] Creating Layer conv4_3_norm_mbox_loc
I0302 23:46:50.467551  8067 net.cpp:434] conv4_3_norm_mbox_loc <- conv4_3_norm_conv4_3_norm_0_split_0
I0302 23:46:50.467555  8067 net.cpp:408] conv4_3_norm_mbox_loc -> conv4_3_norm_mbox_loc
I0302 23:46:50.468583  8067 net.cpp:150] Setting up conv4_3_norm_mbox_loc
I0302 23:46:50.468590  8067 net.cpp:157] Top shape: 16 12 37 37 (262848)
I0302 23:46:50.468592  8067 net.cpp:165] Memory required for data: 1870028544
I0302 23:46:50.468596  8067 layer_factory.hpp:77] Creating layer conv4_3_norm_mbox_loc_perm
I0302 23:46:50.468602  8067 net.cpp:100] Creating Layer conv4_3_norm_mbox_loc_perm
I0302 23:46:50.468605  8067 net.cpp:434] conv4_3_norm_mbox_loc_perm <- conv4_3_norm_mbox_loc
I0302 23:46:50.468608  8067 net.cpp:408] conv4_3_norm_mbox_loc_perm -> conv4_3_norm_mbox_loc_perm
I0302 23:46:50.468685  8067 net.cpp:150] Setting up conv4_3_norm_mbox_loc_perm
I0302 23:46:50.468688  8067 net.cpp:157] Top shape: 16 37 37 12 (262848)
I0302 23:46:50.468691  8067 net.cpp:165] Memory required for data: 1871079936
I0302 23:46:50.468693  8067 layer_factory.hpp:77] Creating layer conv4_3_norm_mbox_loc_flat
I0302 23:46:50.468698  8067 net.cpp:100] Creating Layer conv4_3_norm_mbox_loc_flat
I0302 23:46:50.468699  8067 net.cpp:434] conv4_3_norm_mbox_loc_flat <- conv4_3_norm_mbox_loc_perm
I0302 23:46:50.468703  8067 net.cpp:408] conv4_3_norm_mbox_loc_flat -> conv4_3_norm_mbox_loc_flat
I0302 23:46:50.468719  8067 net.cpp:150] Setting up conv4_3_norm_mbox_loc_flat
I0302 23:46:50.468722  8067 net.cpp:157] Top shape: 16 16428 (262848)
I0302 23:46:50.468724  8067 net.cpp:165] Memory required for data: 1872131328
I0302 23:46:50.468726  8067 layer_factory.hpp:77] Creating layer conv4_3_norm_mbox_conf
I0302 23:46:50.468731  8067 net.cpp:100] Creating Layer conv4_3_norm_mbox_conf
I0302 23:46:50.468734  8067 net.cpp:434] conv4_3_norm_mbox_conf <- conv4_3_norm_conv4_3_norm_0_split_1
I0302 23:46:50.468739  8067 net.cpp:408] conv4_3_norm_mbox_conf -> conv4_3_norm_mbox_conf
I0302 23:46:50.469674  8067 net.cpp:150] Setting up conv4_3_norm_mbox_conf
I0302 23:46:50.469681  8067 net.cpp:157] Top shape: 16 6 37 37 (131424)
I0302 23:46:50.469682  8067 net.cpp:165] Memory required for data: 1872657024
I0302 23:46:50.469686  8067 layer_factory.hpp:77] Creating layer conv4_3_norm_mbox_conf_perm
I0302 23:46:50.469691  8067 net.cpp:100] Creating Layer conv4_3_norm_mbox_conf_perm
I0302 23:46:50.469694  8067 net.cpp:434] conv4_3_norm_mbox_conf_perm <- conv4_3_norm_mbox_conf
I0302 23:46:50.469698  8067 net.cpp:408] conv4_3_norm_mbox_conf_perm -> conv4_3_norm_mbox_conf_perm
I0302 23:46:50.469774  8067 net.cpp:150] Setting up conv4_3_norm_mbox_conf_perm
I0302 23:46:50.469776  8067 net.cpp:157] Top shape: 16 37 37 6 (131424)
I0302 23:46:50.469779  8067 net.cpp:165] Memory required for data: 1873182720
I0302 23:46:50.469780  8067 layer_factory.hpp:77] Creating layer conv4_3_norm_mbox_conf_flat
I0302 23:46:50.469784  8067 net.cpp:100] Creating Layer conv4_3_norm_mbox_conf_flat
I0302 23:46:50.469792  8067 net.cpp:434] conv4_3_norm_mbox_conf_flat <- conv4_3_norm_mbox_conf_perm
I0302 23:46:50.469796  8067 net.cpp:408] conv4_3_norm_mbox_conf_flat -> conv4_3_norm_mbox_conf_flat
I0302 23:46:50.469813  8067 net.cpp:150] Setting up conv4_3_norm_mbox_conf_flat
I0302 23:46:50.469817  8067 net.cpp:157] Top shape: 16 8214 (131424)
I0302 23:46:50.469818  8067 net.cpp:165] Memory required for data: 1873708416
I0302 23:46:50.469820  8067 layer_factory.hpp:77] Creating layer conv4_3_norm_mbox_priorbox
I0302 23:46:50.469825  8067 net.cpp:100] Creating Layer conv4_3_norm_mbox_priorbox
I0302 23:46:50.469826  8067 net.cpp:434] conv4_3_norm_mbox_priorbox <- conv4_3_norm_conv4_3_norm_0_split_2
I0302 23:46:50.469830  8067 net.cpp:434] conv4_3_norm_mbox_priorbox <- data_data_0_split_1
I0302 23:46:50.469833  8067 net.cpp:408] conv4_3_norm_mbox_priorbox -> conv4_3_norm_mbox_priorbox
I0302 23:46:50.469851  8067 net.cpp:150] Setting up conv4_3_norm_mbox_priorbox
I0302 23:46:50.469854  8067 net.cpp:157] Top shape: 1 2 16428 (32856)
I0302 23:46:50.469856  8067 net.cpp:165] Memory required for data: 1873839840
I0302 23:46:50.469858  8067 layer_factory.hpp:77] Creating layer fc7_mbox_loc
I0302 23:46:50.469864  8067 net.cpp:100] Creating Layer fc7_mbox_loc
I0302 23:46:50.469866  8067 net.cpp:434] fc7_mbox_loc <- inception_4e/output_inception_4e/output_0_split_1
I0302 23:46:50.469871  8067 net.cpp:408] fc7_mbox_loc -> fc7_mbox_loc
I0302 23:46:50.471294  8067 net.cpp:150] Setting up fc7_mbox_loc
I0302 23:46:50.471302  8067 net.cpp:157] Top shape: 16 24 18 18 (124416)
I0302 23:46:50.471303  8067 net.cpp:165] Memory required for data: 1874337504
I0302 23:46:50.471307  8067 layer_factory.hpp:77] Creating layer fc7_mbox_loc_perm
I0302 23:46:50.471312  8067 net.cpp:100] Creating Layer fc7_mbox_loc_perm
I0302 23:46:50.471314  8067 net.cpp:434] fc7_mbox_loc_perm <- fc7_mbox_loc
I0302 23:46:50.471318  8067 net.cpp:408] fc7_mbox_loc_perm -> fc7_mbox_loc_perm
I0302 23:46:50.471395  8067 net.cpp:150] Setting up fc7_mbox_loc_perm
I0302 23:46:50.471398  8067 net.cpp:157] Top shape: 16 18 18 24 (124416)
I0302 23:46:50.471400  8067 net.cpp:165] Memory required for data: 1874835168
I0302 23:46:50.471402  8067 layer_factory.hpp:77] Creating layer fc7_mbox_loc_flat
I0302 23:46:50.471406  8067 net.cpp:100] Creating Layer fc7_mbox_loc_flat
I0302 23:46:50.471408  8067 net.cpp:434] fc7_mbox_loc_flat <- fc7_mbox_loc_perm
I0302 23:46:50.471411  8067 net.cpp:408] fc7_mbox_loc_flat -> fc7_mbox_loc_flat
I0302 23:46:50.471427  8067 net.cpp:150] Setting up fc7_mbox_loc_flat
I0302 23:46:50.471431  8067 net.cpp:157] Top shape: 16 7776 (124416)
I0302 23:46:50.471431  8067 net.cpp:165] Memory required for data: 1875332832
I0302 23:46:50.471433  8067 layer_factory.hpp:77] Creating layer fc7_mbox_conf
I0302 23:46:50.471439  8067 net.cpp:100] Creating Layer fc7_mbox_conf
I0302 23:46:50.471442  8067 net.cpp:434] fc7_mbox_conf <- inception_4e/output_inception_4e/output_0_split_2
I0302 23:46:50.471446  8067 net.cpp:408] fc7_mbox_conf -> fc7_mbox_conf
I0302 23:46:50.472617  8067 net.cpp:150] Setting up fc7_mbox_conf
I0302 23:46:50.472625  8067 net.cpp:157] Top shape: 16 12 18 18 (62208)
I0302 23:46:50.472626  8067 net.cpp:165] Memory required for data: 1875581664
I0302 23:46:50.472630  8067 layer_factory.hpp:77] Creating layer fc7_mbox_conf_perm
I0302 23:46:50.472635  8067 net.cpp:100] Creating Layer fc7_mbox_conf_perm
I0302 23:46:50.472637  8067 net.cpp:434] fc7_mbox_conf_perm <- fc7_mbox_conf
I0302 23:46:50.472641  8067 net.cpp:408] fc7_mbox_conf_perm -> fc7_mbox_conf_perm
I0302 23:46:50.472718  8067 net.cpp:150] Setting up fc7_mbox_conf_perm
I0302 23:46:50.472721  8067 net.cpp:157] Top shape: 16 18 18 12 (62208)
I0302 23:46:50.472723  8067 net.cpp:165] Memory required for data: 1875830496
I0302 23:46:50.472724  8067 layer_factory.hpp:77] Creating layer fc7_mbox_conf_flat
I0302 23:46:50.472728  8067 net.cpp:100] Creating Layer fc7_mbox_conf_flat
I0302 23:46:50.472730  8067 net.cpp:434] fc7_mbox_conf_flat <- fc7_mbox_conf_perm
I0302 23:46:50.472741  8067 net.cpp:408] fc7_mbox_conf_flat -> fc7_mbox_conf_flat
I0302 23:46:50.472760  8067 net.cpp:150] Setting up fc7_mbox_conf_flat
I0302 23:46:50.472764  8067 net.cpp:157] Top shape: 16 3888 (62208)
I0302 23:46:50.472765  8067 net.cpp:165] Memory required for data: 1876079328
I0302 23:46:50.472766  8067 layer_factory.hpp:77] Creating layer fc7_mbox_priorbox
I0302 23:46:50.472770  8067 net.cpp:100] Creating Layer fc7_mbox_priorbox
I0302 23:46:50.472772  8067 net.cpp:434] fc7_mbox_priorbox <- inception_4e/output_inception_4e/output_0_split_3
I0302 23:46:50.472776  8067 net.cpp:434] fc7_mbox_priorbox <- data_data_0_split_2
I0302 23:46:50.472779  8067 net.cpp:408] fc7_mbox_priorbox -> fc7_mbox_priorbox
I0302 23:46:50.472797  8067 net.cpp:150] Setting up fc7_mbox_priorbox
I0302 23:46:50.472800  8067 net.cpp:157] Top shape: 1 2 7776 (15552)
I0302 23:46:50.472801  8067 net.cpp:165] Memory required for data: 1876141536
I0302 23:46:50.472803  8067 layer_factory.hpp:77] Creating layer conv6_2_mbox_loc
I0302 23:46:50.472808  8067 net.cpp:100] Creating Layer conv6_2_mbox_loc
I0302 23:46:50.472811  8067 net.cpp:434] conv6_2_mbox_loc <- conv6_2_conv6_2_relu_0_split_1
I0302 23:46:50.472815  8067 net.cpp:408] conv6_2_mbox_loc -> conv6_2_mbox_loc
I0302 23:46:50.473855  8067 net.cpp:150] Setting up conv6_2_mbox_loc
I0302 23:46:50.473862  8067 net.cpp:157] Top shape: 16 24 9 9 (31104)
I0302 23:46:50.473865  8067 net.cpp:165] Memory required for data: 1876265952
I0302 23:46:50.473868  8067 layer_factory.hpp:77] Creating layer conv6_2_mbox_loc_perm
I0302 23:46:50.473873  8067 net.cpp:100] Creating Layer conv6_2_mbox_loc_perm
I0302 23:46:50.473876  8067 net.cpp:434] conv6_2_mbox_loc_perm <- conv6_2_mbox_loc
I0302 23:46:50.473879  8067 net.cpp:408] conv6_2_mbox_loc_perm -> conv6_2_mbox_loc_perm
I0302 23:46:50.473960  8067 net.cpp:150] Setting up conv6_2_mbox_loc_perm
I0302 23:46:50.473963  8067 net.cpp:157] Top shape: 16 9 9 24 (31104)
I0302 23:46:50.473965  8067 net.cpp:165] Memory required for data: 1876390368
I0302 23:46:50.473968  8067 layer_factory.hpp:77] Creating layer conv6_2_mbox_loc_flat
I0302 23:46:50.473971  8067 net.cpp:100] Creating Layer conv6_2_mbox_loc_flat
I0302 23:46:50.473973  8067 net.cpp:434] conv6_2_mbox_loc_flat <- conv6_2_mbox_loc_perm
I0302 23:46:50.473976  8067 net.cpp:408] conv6_2_mbox_loc_flat -> conv6_2_mbox_loc_flat
I0302 23:46:50.473994  8067 net.cpp:150] Setting up conv6_2_mbox_loc_flat
I0302 23:46:50.473996  8067 net.cpp:157] Top shape: 16 1944 (31104)
I0302 23:46:50.473997  8067 net.cpp:165] Memory required for data: 1876514784
I0302 23:46:50.473999  8067 layer_factory.hpp:77] Creating layer conv6_2_mbox_conf
I0302 23:46:50.474004  8067 net.cpp:100] Creating Layer conv6_2_mbox_conf
I0302 23:46:50.474007  8067 net.cpp:434] conv6_2_mbox_conf <- conv6_2_conv6_2_relu_0_split_2
I0302 23:46:50.474011  8067 net.cpp:408] conv6_2_mbox_conf -> conv6_2_mbox_conf
I0302 23:46:50.475039  8067 net.cpp:150] Setting up conv6_2_mbox_conf
I0302 23:46:50.475047  8067 net.cpp:157] Top shape: 16 12 9 9 (15552)
I0302 23:46:50.475049  8067 net.cpp:165] Memory required for data: 1876576992
I0302 23:46:50.475054  8067 layer_factory.hpp:77] Creating layer conv6_2_mbox_conf_perm
I0302 23:46:50.475059  8067 net.cpp:100] Creating Layer conv6_2_mbox_conf_perm
I0302 23:46:50.475060  8067 net.cpp:434] conv6_2_mbox_conf_perm <- conv6_2_mbox_conf
I0302 23:46:50.475064  8067 net.cpp:408] conv6_2_mbox_conf_perm -> conv6_2_mbox_conf_perm
I0302 23:46:50.475142  8067 net.cpp:150] Setting up conv6_2_mbox_conf_perm
I0302 23:46:50.475147  8067 net.cpp:157] Top shape: 16 9 9 12 (15552)
I0302 23:46:50.475147  8067 net.cpp:165] Memory required for data: 1876639200
I0302 23:46:50.475149  8067 layer_factory.hpp:77] Creating layer conv6_2_mbox_conf_flat
I0302 23:46:50.475152  8067 net.cpp:100] Creating Layer conv6_2_mbox_conf_flat
I0302 23:46:50.475155  8067 net.cpp:434] conv6_2_mbox_conf_flat <- conv6_2_mbox_conf_perm
I0302 23:46:50.475158  8067 net.cpp:408] conv6_2_mbox_conf_flat -> conv6_2_mbox_conf_flat
I0302 23:46:50.475181  8067 net.cpp:150] Setting up conv6_2_mbox_conf_flat
I0302 23:46:50.475184  8067 net.cpp:157] Top shape: 16 972 (15552)
I0302 23:46:50.475186  8067 net.cpp:165] Memory required for data: 1876701408
I0302 23:46:50.475188  8067 layer_factory.hpp:77] Creating layer conv6_2_mbox_priorbox
I0302 23:46:50.475193  8067 net.cpp:100] Creating Layer conv6_2_mbox_priorbox
I0302 23:46:50.475196  8067 net.cpp:434] conv6_2_mbox_priorbox <- conv6_2_conv6_2_relu_0_split_3
I0302 23:46:50.475199  8067 net.cpp:434] conv6_2_mbox_priorbox <- data_data_0_split_3
I0302 23:46:50.475203  8067 net.cpp:408] conv6_2_mbox_priorbox -> conv6_2_mbox_priorbox
I0302 23:46:50.475221  8067 net.cpp:150] Setting up conv6_2_mbox_priorbox
I0302 23:46:50.475224  8067 net.cpp:157] Top shape: 1 2 1944 (3888)
I0302 23:46:50.475226  8067 net.cpp:165] Memory required for data: 1876716960
I0302 23:46:50.475227  8067 layer_factory.hpp:77] Creating layer conv7_2_mbox_loc
I0302 23:46:50.475234  8067 net.cpp:100] Creating Layer conv7_2_mbox_loc
I0302 23:46:50.475236  8067 net.cpp:434] conv7_2_mbox_loc <- conv7_2_conv7_2_relu_0_split_1
I0302 23:46:50.475240  8067 net.cpp:408] conv7_2_mbox_loc -> conv7_2_mbox_loc
I0302 23:46:50.476106  8067 net.cpp:150] Setting up conv7_2_mbox_loc
I0302 23:46:50.476114  8067 net.cpp:157] Top shape: 16 24 5 5 (9600)
I0302 23:46:50.476115  8067 net.cpp:165] Memory required for data: 1876755360
I0302 23:46:50.476119  8067 layer_factory.hpp:77] Creating layer conv7_2_mbox_loc_perm
I0302 23:46:50.476125  8067 net.cpp:100] Creating Layer conv7_2_mbox_loc_perm
I0302 23:46:50.476126  8067 net.cpp:434] conv7_2_mbox_loc_perm <- conv7_2_mbox_loc
I0302 23:46:50.476130  8067 net.cpp:408] conv7_2_mbox_loc_perm -> conv7_2_mbox_loc_perm
I0302 23:46:50.476203  8067 net.cpp:150] Setting up conv7_2_mbox_loc_perm
I0302 23:46:50.476207  8067 net.cpp:157] Top shape: 16 5 5 24 (9600)
I0302 23:46:50.476209  8067 net.cpp:165] Memory required for data: 1876793760
I0302 23:46:50.476212  8067 layer_factory.hpp:77] Creating layer conv7_2_mbox_loc_flat
I0302 23:46:50.476214  8067 net.cpp:100] Creating Layer conv7_2_mbox_loc_flat
I0302 23:46:50.476217  8067 net.cpp:434] conv7_2_mbox_loc_flat <- conv7_2_mbox_loc_perm
I0302 23:46:50.476219  8067 net.cpp:408] conv7_2_mbox_loc_flat -> conv7_2_mbox_loc_flat
I0302 23:46:50.476235  8067 net.cpp:150] Setting up conv7_2_mbox_loc_flat
I0302 23:46:50.476238  8067 net.cpp:157] Top shape: 16 600 (9600)
I0302 23:46:50.476240  8067 net.cpp:165] Memory required for data: 1876832160
I0302 23:46:50.476241  8067 layer_factory.hpp:77] Creating layer conv7_2_mbox_conf
I0302 23:46:50.476248  8067 net.cpp:100] Creating Layer conv7_2_mbox_conf
I0302 23:46:50.476250  8067 net.cpp:434] conv7_2_mbox_conf <- conv7_2_conv7_2_relu_0_split_2
I0302 23:46:50.476254  8067 net.cpp:408] conv7_2_mbox_conf -> conv7_2_mbox_conf
I0302 23:46:50.477032  8067 net.cpp:150] Setting up conv7_2_mbox_conf
I0302 23:46:50.477038  8067 net.cpp:157] Top shape: 16 12 5 5 (4800)
I0302 23:46:50.477041  8067 net.cpp:165] Memory required for data: 1876851360
I0302 23:46:50.477044  8067 layer_factory.hpp:77] Creating layer conv7_2_mbox_conf_perm
I0302 23:46:50.477049  8067 net.cpp:100] Creating Layer conv7_2_mbox_conf_perm
I0302 23:46:50.477052  8067 net.cpp:434] conv7_2_mbox_conf_perm <- conv7_2_mbox_conf
I0302 23:46:50.477056  8067 net.cpp:408] conv7_2_mbox_conf_perm -> conv7_2_mbox_conf_perm
I0302 23:46:50.477129  8067 net.cpp:150] Setting up conv7_2_mbox_conf_perm
I0302 23:46:50.477133  8067 net.cpp:157] Top shape: 16 5 5 12 (4800)
I0302 23:46:50.477134  8067 net.cpp:165] Memory required for data: 1876870560
I0302 23:46:50.477136  8067 layer_factory.hpp:77] Creating layer conv7_2_mbox_conf_flat
I0302 23:46:50.477139  8067 net.cpp:100] Creating Layer conv7_2_mbox_conf_flat
I0302 23:46:50.477143  8067 net.cpp:434] conv7_2_mbox_conf_flat <- conv7_2_mbox_conf_perm
I0302 23:46:50.477145  8067 net.cpp:408] conv7_2_mbox_conf_flat -> conv7_2_mbox_conf_flat
I0302 23:46:50.477160  8067 net.cpp:150] Setting up conv7_2_mbox_conf_flat
I0302 23:46:50.477164  8067 net.cpp:157] Top shape: 16 300 (4800)
I0302 23:46:50.477172  8067 net.cpp:165] Memory required for data: 1876889760
I0302 23:46:50.477174  8067 layer_factory.hpp:77] Creating layer conv7_2_mbox_priorbox
I0302 23:46:50.477177  8067 net.cpp:100] Creating Layer conv7_2_mbox_priorbox
I0302 23:46:50.477180  8067 net.cpp:434] conv7_2_mbox_priorbox <- conv7_2_conv7_2_relu_0_split_3
I0302 23:46:50.477182  8067 net.cpp:434] conv7_2_mbox_priorbox <- data_data_0_split_4
I0302 23:46:50.477185  8067 net.cpp:408] conv7_2_mbox_priorbox -> conv7_2_mbox_priorbox
I0302 23:46:50.477205  8067 net.cpp:150] Setting up conv7_2_mbox_priorbox
I0302 23:46:50.477207  8067 net.cpp:157] Top shape: 1 2 600 (1200)
I0302 23:46:50.477210  8067 net.cpp:165] Memory required for data: 1876894560
I0302 23:46:50.477211  8067 layer_factory.hpp:77] Creating layer conv8_2_mbox_loc
I0302 23:46:50.477216  8067 net.cpp:100] Creating Layer conv8_2_mbox_loc
I0302 23:46:50.477219  8067 net.cpp:434] conv8_2_mbox_loc <- conv8_2_conv8_2_relu_0_split_1
I0302 23:46:50.477223  8067 net.cpp:408] conv8_2_mbox_loc -> conv8_2_mbox_loc
I0302 23:46:50.478582  8067 net.cpp:150] Setting up conv8_2_mbox_loc
I0302 23:46:50.478590  8067 net.cpp:157] Top shape: 16 24 3 3 (3456)
I0302 23:46:50.478591  8067 net.cpp:165] Memory required for data: 1876908384
I0302 23:46:50.478595  8067 layer_factory.hpp:77] Creating layer conv8_2_mbox_loc_perm
I0302 23:46:50.478600  8067 net.cpp:100] Creating Layer conv8_2_mbox_loc_perm
I0302 23:46:50.478603  8067 net.cpp:434] conv8_2_mbox_loc_perm <- conv8_2_mbox_loc
I0302 23:46:50.478607  8067 net.cpp:408] conv8_2_mbox_loc_perm -> conv8_2_mbox_loc_perm
I0302 23:46:50.478687  8067 net.cpp:150] Setting up conv8_2_mbox_loc_perm
I0302 23:46:50.478690  8067 net.cpp:157] Top shape: 16 3 3 24 (3456)
I0302 23:46:50.478693  8067 net.cpp:165] Memory required for data: 1876922208
I0302 23:46:50.478694  8067 layer_factory.hpp:77] Creating layer conv8_2_mbox_loc_flat
I0302 23:46:50.478698  8067 net.cpp:100] Creating Layer conv8_2_mbox_loc_flat
I0302 23:46:50.478700  8067 net.cpp:434] conv8_2_mbox_loc_flat <- conv8_2_mbox_loc_perm
I0302 23:46:50.478703  8067 net.cpp:408] conv8_2_mbox_loc_flat -> conv8_2_mbox_loc_flat
I0302 23:46:50.478723  8067 net.cpp:150] Setting up conv8_2_mbox_loc_flat
I0302 23:46:50.478725  8067 net.cpp:157] Top shape: 16 216 (3456)
I0302 23:46:50.478726  8067 net.cpp:165] Memory required for data: 1876936032
I0302 23:46:50.478729  8067 layer_factory.hpp:77] Creating layer conv8_2_mbox_conf
I0302 23:46:50.478734  8067 net.cpp:100] Creating Layer conv8_2_mbox_conf
I0302 23:46:50.478736  8067 net.cpp:434] conv8_2_mbox_conf <- conv8_2_conv8_2_relu_0_split_2
I0302 23:46:50.478741  8067 net.cpp:408] conv8_2_mbox_conf -> conv8_2_mbox_conf
I0302 23:46:50.479558  8067 net.cpp:150] Setting up conv8_2_mbox_conf
I0302 23:46:50.479564  8067 net.cpp:157] Top shape: 16 12 3 3 (1728)
I0302 23:46:50.479567  8067 net.cpp:165] Memory required for data: 1876942944
I0302 23:46:50.479570  8067 layer_factory.hpp:77] Creating layer conv8_2_mbox_conf_perm
I0302 23:46:50.479575  8067 net.cpp:100] Creating Layer conv8_2_mbox_conf_perm
I0302 23:46:50.479578  8067 net.cpp:434] conv8_2_mbox_conf_perm <- conv8_2_mbox_conf
I0302 23:46:50.479581  8067 net.cpp:408] conv8_2_mbox_conf_perm -> conv8_2_mbox_conf_perm
I0302 23:46:50.479655  8067 net.cpp:150] Setting up conv8_2_mbox_conf_perm
I0302 23:46:50.479660  8067 net.cpp:157] Top shape: 16 3 3 12 (1728)
I0302 23:46:50.479661  8067 net.cpp:165] Memory required for data: 1876949856
I0302 23:46:50.479662  8067 layer_factory.hpp:77] Creating layer conv8_2_mbox_conf_flat
I0302 23:46:50.479665  8067 net.cpp:100] Creating Layer conv8_2_mbox_conf_flat
I0302 23:46:50.479668  8067 net.cpp:434] conv8_2_mbox_conf_flat <- conv8_2_mbox_conf_perm
I0302 23:46:50.479671  8067 net.cpp:408] conv8_2_mbox_conf_flat -> conv8_2_mbox_conf_flat
I0302 23:46:50.479687  8067 net.cpp:150] Setting up conv8_2_mbox_conf_flat
I0302 23:46:50.479691  8067 net.cpp:157] Top shape: 16 108 (1728)
I0302 23:46:50.479692  8067 net.cpp:165] Memory required for data: 1876956768
I0302 23:46:50.479701  8067 layer_factory.hpp:77] Creating layer conv8_2_mbox_priorbox
I0302 23:46:50.479704  8067 net.cpp:100] Creating Layer conv8_2_mbox_priorbox
I0302 23:46:50.479707  8067 net.cpp:434] conv8_2_mbox_priorbox <- conv8_2_conv8_2_relu_0_split_3
I0302 23:46:50.479709  8067 net.cpp:434] conv8_2_mbox_priorbox <- data_data_0_split_5
I0302 23:46:50.479713  8067 net.cpp:408] conv8_2_mbox_priorbox -> conv8_2_mbox_priorbox
I0302 23:46:50.479732  8067 net.cpp:150] Setting up conv8_2_mbox_priorbox
I0302 23:46:50.479735  8067 net.cpp:157] Top shape: 1 2 216 (432)
I0302 23:46:50.479737  8067 net.cpp:165] Memory required for data: 1876958496
I0302 23:46:50.479739  8067 layer_factory.hpp:77] Creating layer pool6_mbox_loc
I0302 23:46:50.479744  8067 net.cpp:100] Creating Layer pool6_mbox_loc
I0302 23:46:50.479748  8067 net.cpp:434] pool6_mbox_loc <- pool6_pool6_0_split_0
I0302 23:46:50.479750  8067 net.cpp:408] pool6_mbox_loc -> pool6_mbox_loc
I0302 23:46:50.480625  8067 net.cpp:150] Setting up pool6_mbox_loc
I0302 23:46:50.480633  8067 net.cpp:157] Top shape: 16 24 1 1 (384)
I0302 23:46:50.480634  8067 net.cpp:165] Memory required for data: 1876960032
I0302 23:46:50.480638  8067 layer_factory.hpp:77] Creating layer pool6_mbox_loc_perm
I0302 23:46:50.480643  8067 net.cpp:100] Creating Layer pool6_mbox_loc_perm
I0302 23:46:50.480644  8067 net.cpp:434] pool6_mbox_loc_perm <- pool6_mbox_loc
I0302 23:46:50.480648  8067 net.cpp:408] pool6_mbox_loc_perm -> pool6_mbox_loc_perm
I0302 23:46:50.480720  8067 net.cpp:150] Setting up pool6_mbox_loc_perm
I0302 23:46:50.480726  8067 net.cpp:157] Top shape: 16 1 1 24 (384)
I0302 23:46:50.480727  8067 net.cpp:165] Memory required for data: 1876961568
I0302 23:46:50.480731  8067 layer_factory.hpp:77] Creating layer pool6_mbox_loc_flat
I0302 23:46:50.480747  8067 net.cpp:100] Creating Layer pool6_mbox_loc_flat
I0302 23:46:50.480752  8067 net.cpp:434] pool6_mbox_loc_flat <- pool6_mbox_loc_perm
I0302 23:46:50.480756  8067 net.cpp:408] pool6_mbox_loc_flat -> pool6_mbox_loc_flat
I0302 23:46:50.480779  8067 net.cpp:150] Setting up pool6_mbox_loc_flat
I0302 23:46:50.480782  8067 net.cpp:157] Top shape: 16 24 (384)
I0302 23:46:50.480784  8067 net.cpp:165] Memory required for data: 1876963104
I0302 23:46:50.480787  8067 layer_factory.hpp:77] Creating layer pool6_mbox_conf
I0302 23:46:50.480792  8067 net.cpp:100] Creating Layer pool6_mbox_conf
I0302 23:46:50.480794  8067 net.cpp:434] pool6_mbox_conf <- pool6_pool6_0_split_1
I0302 23:46:50.480798  8067 net.cpp:408] pool6_mbox_conf -> pool6_mbox_conf
I0302 23:46:50.481739  8067 net.cpp:150] Setting up pool6_mbox_conf
I0302 23:46:50.481746  8067 net.cpp:157] Top shape: 16 12 1 1 (192)
I0302 23:46:50.481750  8067 net.cpp:165] Memory required for data: 1876963872
I0302 23:46:50.481765  8067 layer_factory.hpp:77] Creating layer pool6_mbox_conf_perm
I0302 23:46:50.481770  8067 net.cpp:100] Creating Layer pool6_mbox_conf_perm
I0302 23:46:50.481772  8067 net.cpp:434] pool6_mbox_conf_perm <- pool6_mbox_conf
I0302 23:46:50.481776  8067 net.cpp:408] pool6_mbox_conf_perm -> pool6_mbox_conf_perm
I0302 23:46:50.481855  8067 net.cpp:150] Setting up pool6_mbox_conf_perm
I0302 23:46:50.481859  8067 net.cpp:157] Top shape: 16 1 1 12 (192)
I0302 23:46:50.481860  8067 net.cpp:165] Memory required for data: 1876964640
I0302 23:46:50.481863  8067 layer_factory.hpp:77] Creating layer pool6_mbox_conf_flat
I0302 23:46:50.481865  8067 net.cpp:100] Creating Layer pool6_mbox_conf_flat
I0302 23:46:50.481868  8067 net.cpp:434] pool6_mbox_conf_flat <- pool6_mbox_conf_perm
I0302 23:46:50.481871  8067 net.cpp:408] pool6_mbox_conf_flat -> pool6_mbox_conf_flat
I0302 23:46:50.481886  8067 net.cpp:150] Setting up pool6_mbox_conf_flat
I0302 23:46:50.481891  8067 net.cpp:157] Top shape: 16 12 (192)
I0302 23:46:50.481892  8067 net.cpp:165] Memory required for data: 1876965408
I0302 23:46:50.481894  8067 layer_factory.hpp:77] Creating layer pool6_mbox_priorbox
I0302 23:46:50.481897  8067 net.cpp:100] Creating Layer pool6_mbox_priorbox
I0302 23:46:50.481900  8067 net.cpp:434] pool6_mbox_priorbox <- pool6_pool6_0_split_2
I0302 23:46:50.481909  8067 net.cpp:434] pool6_mbox_priorbox <- data_data_0_split_6
I0302 23:46:50.481912  8067 net.cpp:408] pool6_mbox_priorbox -> pool6_mbox_priorbox
I0302 23:46:50.481930  8067 net.cpp:150] Setting up pool6_mbox_priorbox
I0302 23:46:50.481935  8067 net.cpp:157] Top shape: 1 2 24 (48)
I0302 23:46:50.481935  8067 net.cpp:165] Memory required for data: 1876965600
I0302 23:46:50.481937  8067 layer_factory.hpp:77] Creating layer mbox_loc
I0302 23:46:50.481941  8067 net.cpp:100] Creating Layer mbox_loc
I0302 23:46:50.481945  8067 net.cpp:434] mbox_loc <- conv4_3_norm_mbox_loc_flat
I0302 23:46:50.481947  8067 net.cpp:434] mbox_loc <- fc7_mbox_loc_flat
I0302 23:46:50.481950  8067 net.cpp:434] mbox_loc <- conv6_2_mbox_loc_flat
I0302 23:46:50.481952  8067 net.cpp:434] mbox_loc <- conv7_2_mbox_loc_flat
I0302 23:46:50.481955  8067 net.cpp:434] mbox_loc <- conv8_2_mbox_loc_flat
I0302 23:46:50.481957  8067 net.cpp:434] mbox_loc <- pool6_mbox_loc_flat
I0302 23:46:50.481959  8067 net.cpp:408] mbox_loc -> mbox_loc
I0302 23:46:50.481979  8067 net.cpp:150] Setting up mbox_loc
I0302 23:46:50.481982  8067 net.cpp:157] Top shape: 16 26988 (431808)
I0302 23:46:50.481984  8067 net.cpp:165] Memory required for data: 1878692832
I0302 23:46:50.481986  8067 layer_factory.hpp:77] Creating layer mbox_conf
I0302 23:46:50.481989  8067 net.cpp:100] Creating Layer mbox_conf
I0302 23:46:50.481992  8067 net.cpp:434] mbox_conf <- conv4_3_norm_mbox_conf_flat
I0302 23:46:50.481994  8067 net.cpp:434] mbox_conf <- fc7_mbox_conf_flat
I0302 23:46:50.481997  8067 net.cpp:434] mbox_conf <- conv6_2_mbox_conf_flat
I0302 23:46:50.481999  8067 net.cpp:434] mbox_conf <- conv7_2_mbox_conf_flat
I0302 23:46:50.482002  8067 net.cpp:434] mbox_conf <- conv8_2_mbox_conf_flat
I0302 23:46:50.482003  8067 net.cpp:434] mbox_conf <- pool6_mbox_conf_flat
I0302 23:46:50.482007  8067 net.cpp:408] mbox_conf -> mbox_conf
I0302 23:46:50.482023  8067 net.cpp:150] Setting up mbox_conf
I0302 23:46:50.482025  8067 net.cpp:157] Top shape: 16 13494 (215904)
I0302 23:46:50.482026  8067 net.cpp:165] Memory required for data: 1879556448
I0302 23:46:50.482028  8067 layer_factory.hpp:77] Creating layer mbox_priorbox
I0302 23:46:50.482033  8067 net.cpp:100] Creating Layer mbox_priorbox
I0302 23:46:50.482034  8067 net.cpp:434] mbox_priorbox <- conv4_3_norm_mbox_priorbox
I0302 23:46:50.482038  8067 net.cpp:434] mbox_priorbox <- fc7_mbox_priorbox
I0302 23:46:50.482040  8067 net.cpp:434] mbox_priorbox <- conv6_2_mbox_priorbox
I0302 23:46:50.482043  8067 net.cpp:434] mbox_priorbox <- conv7_2_mbox_priorbox
I0302 23:46:50.482044  8067 net.cpp:434] mbox_priorbox <- conv8_2_mbox_priorbox
I0302 23:46:50.482046  8067 net.cpp:434] mbox_priorbox <- pool6_mbox_priorbox
I0302 23:46:50.482049  8067 net.cpp:408] mbox_priorbox -> mbox_priorbox
I0302 23:46:50.482064  8067 net.cpp:150] Setting up mbox_priorbox
I0302 23:46:50.482066  8067 net.cpp:157] Top shape: 1 2 26988 (53976)
I0302 23:46:50.482069  8067 net.cpp:165] Memory required for data: 1879772352
I0302 23:46:50.482069  8067 layer_factory.hpp:77] Creating layer mbox_loss
I0302 23:46:50.482075  8067 net.cpp:100] Creating Layer mbox_loss
I0302 23:46:50.482077  8067 net.cpp:434] mbox_loss <- mbox_loc
I0302 23:46:50.482079  8067 net.cpp:434] mbox_loss <- mbox_conf
I0302 23:46:50.482082  8067 net.cpp:434] mbox_loss <- mbox_priorbox
…
